results/models/best_model.pth (torch, 131125 bytes, 10 tensors)

lstm.weight_ih_l0 f4 [200, 4]
00000000: 453f 263e b6bc 133e 2400 00bd f75d 6d3c
00000010: a130 22bc f82b 3a3e 64e8 eb3d f651 3fbc
00000020: 6877 943d b0df 21bd 81c0 243d da5e 0cbd
00000030: 3f39 343b 0071 393e 7290 2d3e 162d dc3d
00000040: 2a6b 173e fb9b 6e3d 101a 0f3d ec20 433c
00000050: 17f2 22bd f27a 0d3e da8a 4dbd 86bb 8c3d
00000060: bca0 0b3d 0358 293e c6fa 18bd 130c 433e
00000070: 09c8 8bbc 4986 9f3d 20a1 073d 8be6 733b
00000080: 250f b2bd 9c98 48bd c621 be3d f109 453e
00000090: 0439 74bc f494 a1bd b4b6 90ba 18b2 943d
000000a0: 87cd 22bd bcc5 2a3e 59da b1bb 8281 c8bc
000000b0: 0774 4b3d ff3d 203e 2d52 90bd f384 113e
000000c0: cb09 d53d ec9a aa3c 76c6 3cbd 069d 093c
000000d0: 9184 693d c9c5 dd3c cc4f 59bd 3a6e c53d
000000e0: b8ab 3c3e c761 81bd 92e0 2d3e 9165 233d
000000f0: 8767 253b 1afd edbc ffe5 013e 844f cb3d
00000100: 304a a43d 1372 743e 5dc6 b53c d9df 70bb
00000110: 938a 7b3d a211 ce3d 242a 1a3d efbc 6a3e
00000120: d940 cdbd b99b bf3d e143 7bbd d189 71bd
00000130: 60b6 5e3d 19d2 ddbc 8c77 3dbd 5380 083e
00000140: 7a68 d73c c4f7 0e3d 109b 7f3b 4d4b c53d
00000150: 8dac d53d c149 dc3d fc00 dfbd d735 aabc
00000160: ecbd b2bd 565a bb3d 086d 173d d8aa bebc
00000170: ef59 d2bc 4384 173e e337 b6bc 88f3 21bd
00000180: 1506 7bbd 0189 93bd 3aa9 a7bd baf4 753c
00000190: ed66 b03d ef9a 2b3e d30d f43d 76cb 323d
000001a0: 7d78 1fbd c037 013c 9f5e cf3d 0e14 5a3d
000001b0: dcc9 3dbd bb93 abbb 6a46 933d 792a f33d
000001c0: 10d6 e93d ed1a ac3e aca6 463e c6ce 8b3e
000001d0: 9cd0 78bd 8e48 723d b028 fd3c 1531 6b3d
000001e0: cced 3dbc 630d fabd 93e0 94bd 710d c53c
000001f0: e1ad 9fbd 5a73 a63d 7273 0ebe 7bdb a4bd
00000200: 3744 e63c 8a35 5a3e 54c5 213e ac07 223e
00000210: 8fd2 9a3d c8cc 203e 482d bc3d fa01 a93d
00000220: 54c6 a73d b410 3c3d 89ba 453e 9e0e 423e
00000230: 81fe c5bc 578d 5b3d d94c 023e cb0d 213e
00000240: 8bfc 5b3b bb66 a73c 3fb3 e03d a4b6 13bd
00000250: 1cee d23d af3b a63d fa49 023e b936 b0bd
00000260: 6e77 2fbd f038 383e 59c7 5c3e 2b04 eb3d
00000270: 099a 1e3e 6fd5 5e3e 7a68 0a3e 3a9d 2f3d
00000280: 17c3 9b3d a090 0b3e 32de d13d ce93 473e
00000290: 7726 a4bd d702 563b 0be2 2ebe 0d55 69bd
000002a0: 89ce 8a3d 04bc 223d fdc1 0d3d aa09 92bd
000002b0: 454f 44bd 8c36 1b3e 3491 333d 73b1 223d
000002c0: dbee 0f3e 1d1a 653e a25f bc3d 620a 903e
000002d0: 5267 293e cb3f d43d 69f0 0ebd bff8 133d
000002e0: 191f 123e 265e b13c 5fb6 f73d 23fa 2e3e
000002f0: f5b7 193e 39cb 353e 3bb3 2e3e 2fd2 78ba
00000300: 6237 e33d 10fd 793e eb5a ec3d b3fd 0d3e
00000310: 80b7 ae3c b08f 013e 35fb aa3d 22bd 233e
00000320: 56b4 d13c c299 fd3d ee94 fc3d 069b 443e
00000330: 6435 e43d 15cb 163e c511 06be e509 323d
00000340: 18e8 223e 4c14 bebd 7c0d b8bc 5afa 0e3e
00000350: 7e0d d1bc d1f8 903d 90c6 ac3d 6f69 7fbc
00000360: 164f f7bd 8aa9 43be a97c b5bd 4965 40be
00000370: 187a 19be 2ad2 3f3d 5281 383d f1d0 f03d
00000380: 9d9b 303c 243c ec3d c8e3 ba3d 6f76 ea3d
00000390: 19a1 d8bd fe09 9b3d 046e cfbc 9eff 133e
000003a0: df27 da3c 1e6f 18bc 16dd 2a3e a1d3 0d3d
000003b0: 2f77 83bd 0f55 cd3d 25a2 c5bd 2520 06be
000003c0: 9b88 ec3d 0495 9b3d 72f9 8e3d 3d59 6c3d
000003d0: eecf b5b8 71c9 b63d 8bd8 94bd 5a09 97bc
000003e0: bad8 053e c47a b83d f13c 19bc 489b d63c
000003f0: 6776 e3bd 2073 c9bd f476 acbd 8f68 8a3d
0.16235073 0.14427456 -0.031250134 0.014487735 -0.009899289 0.18180835 0.11518934 -0.011677256
0.072493374 -0.039519966 0.04022265 -0.034270145 0.0027499942 0.18109512 0.16949633 0.10750787
0.14786974 0.058254223 0.034936965 0.011909705 -0.039781656 0.13816431 -0.050181247 0.06871705
0.034088835 0.1653748 -0.03734853 0.19047575 -0.017063158 0.07789285 0.033112645 0.0037216272
-0.08694295 -0.048973665 0.092837855 0.19242074 -0.014906172 -0.07889739 -0.0011040778 0.07260531
-0.039746787 0.16676992 -0.0054276404 -0.024475817 0.0496712 0.1564865 -0.07046924 0.14210872
0.104022585 0.020825826 -0.046087705 0.008399254 0.05701119 0.02707185 -0.053054616 0.09640165
0.1842488 -0.06317478 0.16980198 0.039891783 0.002523871 -0.029051352 0.12685393 0.09927276
0.08021963 0.23871641 0.022189314 -0.0036754517 0.06141145 0.10061957 0.037637845 0.22923635
-0.10022134 0.093558736 -0.06134403 -0.058969323 0.054373145 -0.027077721 -0.046256587 0.13330202
0.026294935 0.034904256 0.0039002337 0.09633503 0.10433302 0.10756255 -0.1088886 -0.020777626
-0.08727631 0.091480896 0.036969215 -0.023274824 -0.02567765 0.14796548 -0.022243446 -0.03953889
-0.061285097 -0.07203866 -0.08186574 0.015011961 0.086133815 0.16758321 0.11916699 0.043651067
-0.038933266 0.007886827 0.101254694 0.053241782 -0.046335086 -0.0052361167 0.07191165 0.118733354
0.11417782 0.33614293 0.19399518 0.27306193 -0.06074582 0.059151225 0.03090319 0.057419855
-0.01159234 -0.122095846 -0.07269397 0.02405426 -0.07796837 0.0812747 -0.13911226 -0.08049675
0.0281087 0.21309486 0.15797931 0.15823239 0.07559692 0.15703118 0.09188324 0.0825233
0.08192125 0.045914367 0.19309439 0.18950889 -0.024169208 0.05360159 0.12724628 0.15727918
0.0033567275 0.020434728 0.109716885 -0.03606285 0.10299322 0.081168525 0.12723532 -0.086041875
-0.042838506 0.1799047 0.2156042 0.11475404 0.15488447 0.21761106 0.13516417 0.042874552
0.0760557 0.13629389 0.102474585 0.19489977 -0.08015149 0.0032655501 -0.17078416 -0.056965876
0.06777675 0.039730087 0.03460883 -0.071307495 -0.04792716 0.15157527 0.04383965 0.03972001
0.1405596 0.22373243 0.09197928 0.2813292 0.1654332 0.1036373 -0.03489724 0.036125895
0.14269675 0.021651339 0.120953314 0.17087607 0.1501158 0.17753305 0.17060558 -0.0009491769
0.11094548 0.24412942 0.11540779 0.1386631 0.021327734 0.12652469 0.08348695 0.15990117
0.025598686 0.123828426 0.123330936 0.19199762 0.11142996 0.14725907 -0.13092716 0.043466467
0.15908849 -0.09281215 -0.022467367 0.13962689 -0.025519129 0.07078708 0.0843631 -0.015589102
-0.12075631 -0.19107643 -0.08861668 -0.18788637 -0.14987981 0.046831287 0.045045204 0.117586024
0.010779289 0.115349084 0.09125477 0.11448371 -0.10577602 0.07570265 -0.025321014 0.14452979
0.02663034 -0.009303836 0.166859 0.034625653 -0.06419217 0.10025989 -0.09650067 -0.130982
0.11549493 0.07596782 0.06981172 0.05770229 -8.6694825e-05 0.08925141 -0.07267865 -0.018437076
0.13070956 0.09007791 -0.0093529085 0.02619709 -0.11106568 -0.098364115 -0.08421126 0.06758224

lstm.weight_hh_l0 f4 [200, 50]
00000000: a1ab 42bd c59d 183d 990d a3bd 2a56 babd
00000010: 00ca 88bd a647 d2bd 0aaf 9a3d 1bca 15be
00000020: cb5e 6c3d 5fa1 ba3d e330 0d3d 477d 953d
00000030: b363 65bd 1364 5ebd cbd2 0abe 03c4 973d
00000040: c191 01bd 190d d23c ebcc 073e f70a b13d
00000050: 936b 433d 6c2e 0c3c 522d 2f3c d91d 96bd
00000060: f301 1f3e 33a6 54bd 44b0 fabd d85f cd3d
00000070: 5ed3 523c f640 0d3e 4a41 4cbd 531d 0f3d
00000080: fd36 19be 90af 283e 5aef 34bd 3383 bebc
00000090: 985a b43d 11c1 cf3d 0212 203c 1cb0 bbbc
000000a0: 26c5 8b3d a5ee d3bd bba4 9dbd af70 4bba
000000b0: b455 b8bd 320a 86bd 4673 243d 6711 0e3d
000000c0: 37df a6bb 3e14 a83d 0345 053e 5e57 3a3d
000000d0: 7f1d a4bb c627 86bd 567c b63b e920 05bd
000000e0: 70ec 88bb 3fce e5bd 4fdb d83d bb70 f8bc
000000f0: 931e 83bd bada 22bc 0d6c b5bd 5706 9e3d
00000100: 428f 3c3d 2eb6 fcbd 34b6 34be 36c7 a3bd
00000110: d9d3 f63d bf9f a1bc 1b3a 1bbe 53c7 323e
00000120: 0f8f 08be 3788 d33c ddfc 35bd 11b0 e0bd
00000130: 2035 f6ba 7dfa b23d 54b9 663d 018a f7bd
00000140: a55b 653d 9377 b23b 0fe5 84bd 8b53 b8bd
00000150: f689 02be 6da9 22be 1b6b c8bd fd03 a53d
00000160: 94c9 2a3e fe53 bbbc a37a 963d 8d8a a0bd
00000170: 1668 2abd 86f6 6e3d b0de e43d 1ded e03d
00000180: 6d4c 043e a4d9 b6bd 19eb adbd 93a4 0f3d
00000190: fb9d d63c ea3e 003e 965f 7ebd d837 cb3d
000001a0: cc2c 283d 3d5e abbc d44f 01bb 919e 7b3c
000001b0: 9f69 7cbd d62b 033e 9dbf d7bd 0d1e ddbd
000001c0: 7368 bcbd 7492 fb3d a178 59bd 0eeb b93d
000001d0: fcbe 21bd 2e5a 14be 5ce3 303e 21e5 093e
000001e0: 16b7 63bc c955 2b3d eaab e0bd f0c4 b4bd
000001f0: f9e8 0d3e 2d49 70bd 6141 483d da65 0ebd
00000200: f470 a43d d4cd afbd d392 f63c 022a 193e
00000210: d545 9cbc 923a db3d 619b 2fbe 3347 3e3d
00000220: 03a1 1c3e 586b 26be 17a9 ccbd b7d5 183e
00000230: a957 32bb da64 52be cb92 8dbd 375a bbbd
00000240: 62ee acbd 19c3 543d 1162 ea3d a6ae 0abe
00000250: ee18 21bd db06 a2bc 8621 cfbd 20a0 cebd
00000260: 2c42 8a3d 4fbf 003d 22de 0dbe bfae 6ebd
00000270: e88b 973d d453 573c c0b8 e63d 4a36 913d
00000280: da29 61bc d3f0 ebbb c5a3 c8bd 5ede a53d
00000290: b6a8 03be 31a8 92bd 3e8a 3a3c 06c0 f83c
000002a0: 4d5f 9f3b 7f49 07bd 434e edbd 70ec a23d
000002b0: b79c 85bd 12c4 e13d 9aae 693b 9f73 9e3c
000002c0: 7e1f 95bc 2199 b7bc 1d34 9c3c 79b6 153c
000002d0: 0d94 403e f1a1 143e baba adbd 3a61 f73d
000002e0: 5e24 ccbd 0007 7e3c c6d5 86bd 82e9 96bd
000002f0: ef88 293e 6c73 93ba 5c16 40bd f185 5bbe
00000300: 1527 90bc af14 efbb afaf 93bd e102 f83d
00000310: e331 423d 01b5 b1bc a2b7 adbb c17b f3bc
00000320: 9d7a 3ebd bc26 e83c e11d 9d3d 27f7 2c3d
00000330: bf9c a2bd 405c 1a3e 0a47 c7bd 930a 1a3d
00000340: 6769 ab3d ab04 e0bd 53e5 7bbd f850 20be
00000350: 1d64 14be 8d07 13bd 284a 2abe f6b9 d7bd
00000360: 4c71 babd 7cb6 163d 58ef 5bbd 0268 d6bd
00000370: 6604 133b d45a 6cbb f21a c93d 1ff7 01bd
00000380: 67b3 80bd 53d5 7dbd 7295 1cbe b226 d33d
00000390: 3c07 193d 33c7 acbd 6cec dfbd a016 39bd
000003a0: eaab 0fbd 972a 123c 670a 863b dd3a 3e3d
000003b0: 9e54 14bd c531 a03d 8724 603d a1de 493d
000003c0: 1472 d9bd 92e8 a1bd 18c4 8b3d b5df e53d
000003d0: dcf3 0fbe 82b8 b4bd b68f 183e 3f74 733d
000003e0: fc77 99bd 00fe 6abd b1f2 e03a 9b02 813d
000003f0: 96b6 5c3d 8535 e73d ab5f ca3d 77f2 01be
-0.04752696 0.037259836 -0.07961578 -0.09098466 -0.066791534 -0.10267572 0.07552917 -0.14627878
0.05770759 0.0911281 0.03447045 0.072992854 -0.056003284 -0.054294657 -0.13556974 0.07410433
-0.031633142 0.025641011 0.13261764 0.086446695 0.047710013 0.00855599 0.010691958 -0.07329912
0.15528087 -0.051916312 -0.12240651 0.10028046 0.012867777 0.13794312 -0.049866952 0.034940075
-0.14962383 0.16473222 -0.044173576 -0.02325592 0.08806342 0.10144246 0.009769918 -0.022911124
0.068247125 -0.10348252 -0.076974355 -0.00077606266 -0.090007216 -0.06544913 0.040148996 0.034684565
-0.0050925273 0.08206986 0.13014607 0.045493476 -0.005008399 -0.06550555 0.005569021 -0.03250209
-0.004178576 -0.11220979 0.10588705 -0.030327192 -0.06402316 -0.009939844 -0.088585 0.07716053
0.04603506 -0.123394355 -0.1764763 -0.07996981 0.120521255 -0.019729493 -0.15158884 0.17458849
-0.13335823 0.025821788 -0.044430602 -0.10971082 -0.0018784143 0.08739183 0.056329086 -0.12086869
0.055995602 0.0054463833 -0.06489002 -0.090003096 -0.1274794 -0.15884943 -0.09786054 0.08057401
0.16678458 -0.022867199 0.0734761 -0.078389265 -0.04160317 0.05834057 0.11175287 0.10982726
0.12919779 -0.089282304 -0.08492107 0.03506906 0.026198378 0.12524 -0.062102877 0.09922761
0.041058347 -0.02091896 -0.001973142 0.015357629 -0.061624166 0.12809691 -0.10534594 -0.10796747
-0.091996096 0.12283793 -0.053093556 0.09078036 -0.039488778 -0.14487526 0.1727423 0.13466312
-0.013898632 0.041829858 -0.1097029 -0.08826625 0.13858403 -0.058663536 0.048890475 -0.034765102
0.080293566 -0.085841805 0.030099308 0.14957431 -0.019076267 0.10704531 -0.17149116 0.04645462
0.15295796 -0.16251886 -0.09993189 0.14925276 -0.0027212894 -0.20546284 -0.06912764 -0.091480665
-0.084439054 0.051943872 0.11444486 -0.13543186 -0.039330415 -0.01977866 -0.10113816 -0.10089135
0.067509025 0.031432446 -0.13854268 -0.05827212 0.07399732 0.013142545 0.11265707 0.07090433
-0.013742888 -0.0072003393 -0.097968616 0.08099054 -0.12857327 -0.07160986 0.011385499 0.030365001
0.0048636557 -0.033029076 -0.11587193 0.07955253 -0.065240316 0.110237256 0.003565705 0.019342242
-0.018203493 -0.022411885 0.019067818 0.009137743 0.18806477 0.145149 -0.08482881 0.12079091
-0.09967874 0.015504599 -0.06583743 -0.07368757 0.16556142 -0.0011249608 -0.046896324 -0.21437813
-0.01759676 -0.007296167 -0.07211243 0.12109924 0.047410857 -0.021692755 -0.0053014318 -0.029722096
-0.046503652 0.028338782 0.076717146 0.04222789 -0.07940053 0.15074253 -0.097303465 0.03760774
0.08369713 -0.1093839 -0.061497997 -0.15655887 -0.14491315 -0.035895873 -0.16629851 -0.10533516
-0.09103641 0.036795124 -0.053695053 -0.10469057 0.0022433042 -0.003606488 0.098195925 -0.031729814
-0.06284218 -0.06197102 -0.15291384 0.10310115 0.037360415 -0.08436432 -0.10933766 -0.045187593
-0.03507606 0.008921287 0.0040905955 0.046442855 -0.03621351 0.07821993 0.054722335 0.04928458
-0.10617462 -0.079056874 0.06824511 0.11224309 -0.14057869 -0.088242546 0.14898571 0.059437033
-0.07493588 -0.05737114 0.0017162171 0.06299325 0.053885065 0.11289505 0.098815285 -0.12690149

lstm.bias_ih_l0 f4 [200]
00000000: 4658 383d 8be7 bb3d 4bb7 23bd abac 543e
00000010: 4869 bf3c da9a c0bd 237d 583d f548 583e
00000020: 41a2 b8bd 2fff 1e3e 3180 21ba dc58 cf3d
00000030: 8a57 2b3e 24b3 083d 8a6f 033e 2cb2 26bd
00000040: 275c 363e f042 e13d cbf8 773b ab67 413e
00000050: bd1e cd3d a90a ab3d a115 fb3d e020 ab3c
00000060: 6b23 9e3d c8f5 8cbc f9ae 073e e8ae 99bc
00000070: 6c87 9f3e 7355 f53d 7a75 e5bd f40f 8c3c
00000080: 7fc2 0c3e 1ae0 ae3d b77b df3d 7b5c fa3d
00000090: 3dce b63d db11 833d 5727 e93d 4e23 c7bc
000000a0: 92bb 543e 2f41 d0bd a893 54bc 2108 f33c
000000b0: d9ba 9fbc b2f3 28bd ef39 233c ef1d e4bb
000000c0: 4e05 6e3d 4064 d3bd 958e 3c3d 6836 773d
000000d0: 9ec2 c73c 1e37 a83d 4a4f 51bd ec2a 24be
000000e0: 4534 35bd e55b 3bbb 7ef8 10bd 961a 3fbd
000000f0: edce a03c 2cfc dd3c de7d 0fbb 5ea3 b3bd
00000100: 62a0 46bd 107d 3cbd 70e7 93bc d97b 193e
00000110: 7730 fdbd 39e1 cf3d 1942 9bbd f34f 03be
00000120: 0549 c73d 4eea aabd 94cd 153d 2ee4 9a3c
00000130: fed5 c73d cd75 5bbc f524 39be d30f 713d
00000140: 7380 ac3d 3ab7 d0bd ec19 823c 17df 30bc
00000150: c9bf ff3d 58ae debd 3772 96bb 947e 89bc
00000160: 8f51 16be a7e4 08be 034f 983d c975 1bbd
00000170: 6a07 12be 9708 e3bd af21 a6bc cc39 58bd
00000180: 902d 6dbd 750e ac3d c05a b7bd 0e85 7bbd
00000190: 1332 b5bd bb9c b7bb 0780 c03d daf2 3fbd
000001a0: b7e8 923d f2a4 41bd 9531 d0bc a72a adbd
000001b0: 2918 f33d d3b9 093d e92d 1f3d b685 11bd
000001c0: c534 04bc e579 8ebd ffeb eabd d856 793d
000001d0: 2207 95bd b315 063e 07b4 5abd 9e0a 2f3d
000001e0: 48da 4ebb 1989 fb3c bf9a 57bd 74e9 413d
000001f0: 47d1 4d3d ee2c 163d a489 bcbc b8dc 65bd
00000200: 182d cd3d a70b e4bd 1842 023d fbd6 c13c
00000210: 901c 98bd 1f79 303d 9605 4a3d 3911 aa3d
00000220: fb65 7ebc 95d6 adbd 285a 26bc db36 b63d
00000230: d974 3bbd e978 04be 7ccb e43d c39e 403d
00000240: 8338 2e3d 927d edbd c231 c73d ecd1 4ebc
00000250: d00c 4f3d 979e e9bd ebfd 3f3d 5894 5a3e
00000260: 7f9b ca3d c9fe c1bc 97e2 39bd 7f91 a83d
00000270: 99b2 083b 0d3a 8d3e bee8 debd 11f6 b23c
00000280: 2a18 cd3d 7dde 673d 9c0f 4ebd 13ea 093e
00000290: 8256 de3d 95ce 8d3d c201 6c3d 886f 223e
000002a0: 781f 0bbe 3e6c 393d 27cb 06be 9ec9 923d
000002b0: b4c9 9e3d 2fb6 ec3d 80cc c9bd 173a 543d
000002c0: 0c0f 133e bcc6 a1bd da73 413e ce66 243e
000002d0: 6108 dabd e6b7 0f3e 4da8 853d 0533 ac3c
000002e0: 8d7c a0bd 9ae8 473d d29c 5f3d 8ac3 903d
000002f0: 1d8a aa3c 803c fb3c 00fd 573e c389 3fbd
00000300: f78d c9bd f6fd 883d 18b4 2a3e 8b0c 2d3e
00000310: bb0a bd3c 74e2 63bb 6289 173c bf5f 4fbd
0.04500606 0.09175023 -0.039969724 0.20768993 0.023365632 -0.094045356 0.052853715 0.21121581
-0.090153225 0.15527032 -0.00061607646 0.101243705 0.16732612 0.033373967 0.12835518 -0.04069726
0.17808591 0.109990954 0.00378375 0.18887202 0.100156285 0.08351643 0.12259985 0.0208897
0.07721599 -0.017207041 0.1325034 -0.01876016 0.31158006 0.11979189 -0.112040475 0.01709745
0.1374607 0.08538838 0.109122686 0.122246705 0.089260556 0.0639989 0.113844566 -0.024308827
0.20774677 -0.10168683 -0.012974657 0.029666962 -0.019498276 -0.04124803 0.009962543 -0.006961576
0.058110528 -0.103218555 0.046034414 0.06035462 0.024384793 0.08213638 -0.051101007 -0.16031998
-0.0442393 -0.002858871 -0.03539323 -0.046656214 0.01962992 0.027097784 -0.002189509 -0.08771394
-0.048492797 -0.046017706 -0.018054694 0.1498865 -0.123627596 0.1015038 -0.075809665 -0.12823467
0.09730724 -0.08345471 0.036573008 0.018907633 0.09757613 -0.013394785 -0.18080504 0.05885298
0.08422937 -0.10191198 0.015881501 -0.010795376 0.12487752 -0.10873097 -0.004591252 -0.01678399
-0.1467955 -0.13368474 0.07436945 -0.037954126 -0.1426064 -0.11085623 -0.020279733 -0.052789494
-0.05790478 0.08401195 -0.08952856 -0.061406188 -0.088474415 -0.0056034005 0.09399419 -0.04686246
0.07173293 -0.047276445 -0.025414268 -0.08455401 0.118698426 0.03362448 0.038862143 -0.035527907
-0.008069222 -0.06956843 -0.11470794 0.060873836 -0.07276751 0.13094215 -0.053394344 0.042734735
-0.0031563211 0.030705022 -0.05263781 0.04734178 0.05024841 0.036663942 -0.02301485 -0.056118697
0.100183666 -0.11135035 0.031801313 0.023662081 -0.07427323 0.04308426 0.049321733 0.08304066
-0.015527244 -0.08488194 -0.010153331 0.088971816 -0.04576573 -0.12936749 0.11171624 0.047026407
0.042534363 -0.11596216 0.097262874 -0.012623291 0.05054933 -0.11407202 0.046873014 0.21345651
0.0989294 -0.023681061 -0.04538211 0.08230876 0.0020858406 0.27583352 -0.10884236 0.02184585
0.100143746 0.056608666 -0.050307855 0.13468198 0.10856344 0.06924168 0.057618864 0.15862858
-0.13586223 0.045269243 -0.13163434 0.07167362 0.077533156 0.11558186 -0.098534584 0.05181321
0.14361209 -0.07899234 0.1889185 0.16054842 -0.106461294 0.14034995 0.065262415 0.021020422
-0.07836256 0.04880581 0.054592915 0.07068546 0.02081781 0.030668497 0.21092606 -0.04676224
-0.09841531 0.06689064 0.16670263 0.16899316 0.023076406 -0.0034772428 0.009249063 -0.05062842

lstm.bias_hh_l0 f4 [200]
00000000: 0a2e 9abd 45df 743e 60b2 0b3e 7a1c e03d
00000010: 498b 103e a30a 82bd c414 0a3e 0c50 9a3e
00000020: c4ec 4cbd 797e 463e 8f94 763d 37d2 c6bd
00000030: 411f 243e 696c b43d 2061 fa3d 2b28 a2bc
00000040: a728 543d 863f 2cbd 7973 063d 68f6 143e
00000050: ac46 13bd 3eec 97bd 9527 b83d 830f 593d
00000060: a544 2e3e 5758 de3d 2311 323e 3569 453d
00000070: 1e50 af3e bdcc 6c3e e2d0 a83d a53a 4d3e
00000080: 31ab 87bd cf71 933e c132 01be cc1d cb3d
00000090: bd76 463e e0c7 c6bd e215 95bd 1500 43bc
000000a0: 3652 713e 7c91 083e fa3b b3bd dd5a fd3d
000000b0: 23db b43d 8c1a c43d 2bc7 a9bd 593c dd3d
000000c0: 17c4 9d3d 4d3a 80bc 69ab c7bd 3e4c 14be
000000d0: 0922 dfbd ccc6 93bd 7cb3 bdbd 6361 973d
000000e0: 173f 7dbd 2b06 05be 876c 8e3d 3d8c d8bd
000000f0: 4ded afbd 92e4 e03d 2eef 0cbe 660f b93c
00000100: c0ee 053d dd1a b33d 1684 d43d 033d e6bd
00000110: 875a bf3d be7a 4b3d 6c27 31bd 12fc 16be
00000120: 95e3 99bd 2e9a cd3d 3877 663d 2f54 8bbd
00000130: b604 493d 43cc 383d d64c e8bd 92a3 20be
00000140: 3613 f33c bb62 0abe a3cd bcbd 3197 8ebd
00000150: 3392 1bbe 457e 9ebc aad8 e43c 840c c3bd
00000160: 0d74 823d 23c6 ac3d 5cdf 88bb d794 8a3d
00000170: 7445 f03d 3fc3 bfbc dca5 a1bd 2361 043c
00000180: 1543 18be e206 f7bd c9a4 1abe 3983 ad3d
00000190: ac83 983d 8a78 57bc 370d 46bd 9979 d63d
000001a0: 46a2 eebd fd42 253d 557e d7bc 8158 e73d
000001b0: 8d9a e5bd 27eb 333d c4fd b43c 7ad0 03be
000001c0: ad92 b6bd a978 b83d 82c6 d53d 1ead 03be
000001d0: 9336 813d 8e00 87bd 0d10 c93d 0eb8 d03a
000001e0: db40 5bbc 61bf ae3d 8783 99bd 76a2 ecbc
000001f0: 39e0 433d 59a4 86bc 86ef cc3b 5128 533a
00000200: a22b 81bd 8c92 a13d f16b 28bb db61 183d
00000210: 555d afbd 998b a5bd 41a5 a8bd 0443 5f3c
00000220: cfb3 0d3d 1626 9c3d f804 d33d 9a9f 613c
00000230: e6cf fc3d 3b39 59bb 73b7 7bbd 603e af3d
00000240: 69e3 b73c 67d9 a13d 3460 c53c d4b2 dcbc
00000250: 69fd 82bd 258b 213d 1ec8 b13c 3f27 de3d
00000260: a982 26bd e517 723d 2aa7 dcbb 6439 b53d
00000270: 1747 733a 7b35 bd3d 4895 103e 50c5 fc3d
00000280: 3828 95bd 3854 1abe d54e 0e3d 9903 3b3e
00000290: 5291 f83d 6bff 4abd b4f4 91bd 3d89 2b3b
000002a0: c01f 1b3d ba2f 193c 3572 b9ba 5b3f 8bbc
000002b0: e2fd abbd d4d0 113d bb0d 143e edd7 54bc
000002c0: 024a 023e f1a2 0f3e e901 9f3e c111 733e
000002d0: 090d b73c 29ac 333c e58f 4f3d 375c 8b3e
000002e0: 6c3e c93d 5bfa 6c3d bd91 033e 3c3b a6bd
000002f0: 9c3b 2e3e 4b84 cebd fb1a 0cbd 1929 bebd
00000300: 7054 a73d 1334 4c3e 5657 823e c6a5 003e
00000310: 35ea 91b9 8cf8 d33d 7fe3 3d3d bdd8 8bbd
-0.075283125 0.23913296 0.13642263 0.109429315 0.14115633 -0.06349685 0.13484484 0.30139196
-0.050030485 0.19384183 0.06020027 -0.09708064 0.16027547 0.0880974 0.122255564 -0.019794544
0.05179658 -0.04205277 0.032824967 0.14547122 -0.03595607 -0.074181065 0.08991925 0.05299331
0.17018373 0.10856693 0.1738935 0.048196036 0.34240812 0.23124976 0.08242966 0.20041902
-0.06624449 0.28797767 -0.12617017 0.09917793 0.19381233 -0.09706092 -0.072795644 -0.011901875
0.23566517 0.13336748 -0.08751674 0.123708464 0.088308595 0.09575376 -0.082899414 0.10802526
0.07703417 -0.0156528 -0.09749491 -0.14482209 -0.108951636 -0.07215652 -0.092627496 0.07391622
-0.061827745 -0.12990634 0.06954294 -0.10573623 -0.085901834 0.10981096 -0.13763115 0.02259035
0.032698393 0.08745358 0.10376756 -0.11242106 0.093434386 0.049677603 -0.043250486 -0.14744595
-0.07514111 0.10039173 0.05626604 -0.06803166 0.04907676 0.045116674 -0.1134278 -0.15687397
0.029672246 -0.13514225 -0.092189096 -0.06962431 -0.1519249 -0.01934732 0.027935345 -0.095238715
0.06369791 0.08436229 -0.004177017 0.0676667 0.11731997 -0.02340853 -0.07892963 0.0080798
-0.1486934 -0.1206186 -0.15101923 0.08472294 0.074469894 -0.013151297 -0.048352446 0.10472412
-0.11652045 0.040347088 -0.026305357 0.11296178 -0.11211119 0.04392543 0.022093661 -0.12872496
-0.08914695 0.09007389 0.10438253 -0.12859008 0.06309237 -0.06591903 0.098175146 0.0015923993
-0.013382162 0.085325964 -0.0749579 -0.028886061 0.047821257 -0.016435789 0.0062541394 0.0008055019
-0.063071504 0.0788928 -0.0025699104 0.037202697 -0.085627235 -0.08083267 -0.08234645 0.013626818
0.034595307 0.07624452 0.10303682 0.013770962 0.12344341 -0.0033145684 -0.061454248 0.08556819
0.022447305 0.07902794 0.024093725 -0.02694074 -0.063959904 0.03943934 0.021701869 0.10847329
-0.04065195 0.05910482 -0.0067337947 0.08848837 0.00092803076 0.09238716 0.14119446 0.12342322
-0.07283062 -0.1507119 0.03474315 0.18263091 0.12137093 -0.04955999 -0.071267515 0.002617433
0.037872076 0.009349758 -0.0014148416 -0.016997984 -0.08398034 0.035599545 0.14458363 -0.012990934
0.12723544 0.14027001 0.31056145 0.23737241 0.022345083 0.010966339 0.050674338 0.27218792
0.09826359 0.057855945 0.12848563 -0.08116767 0.17014927 -0.10083827 -0.034205418 -0.092851825
0.08170402 0.1994174 0.25457257 0.12563238 -0.00027831053 0.10350141 0.046359535 -0.06828449

lstm.weight_ih_l1 f4 [200, 50]
00000000: cb80 ed3d c967 afbc 8772 1c3d 05a8 8fbb
00000010: 2bc6 0bbe 83f3 28bb 0998 cb3d be64 e5bd
00000020: 65ad e5bc d203 7b3d 69dd 9bbb 9c13 c4bc
00000030: e4c7 f53c db3d e73c b2cb b03d 209f 0f3d
00000040: d635 de3d 652a a7bd 1f01 12be e44d 11be
00000050: b1eb 98bb 4b51 f2bc 9f5a fd3d a05b ae3d
00000060: 6016 9dbc 3713 a93a ca5b d2b9 2acc 0cbe
00000070: 33eb 84bc 5b41 843d b5c3 173d d480 80bc
00000080: 6f59 68bd 6414 9f3d cb4a 4e3d 602f b53d
00000090: f972 e63c 627b c6bc 5d8d 003e 6694 903b
000000a0: d349 343d 8aae c4bd 4f93 a23d d413 023e
000000b0: 9b62 9b3a d3ba df3d b56e cdbd ffe5 a13c
000000c0: ed3c b63c bd71 b0bd 4753 a5bd c18d 5d3e
000000d0: 2443 cd3c 348a c3bd 7dd6 a83d 8107 203e
000000e0: 844b ad3c 5a2c 20be 55f1 6e3d 4944 0cbe
000000f0: 96d8 6abd 9c67 2cbe 09bb 1bbe ac91 b4bd
00000100: ca40 ddbc b73a e0bc 5fa3 643c 64de fbbd
00000110: 34ee d13c 87f1 d93d 2f5f c7bb 1ca3 9c3c
00000120: 4def d03b edca d1bd 6628 acbb b69e 6a3e
00000130: 22a2 01bd 051a eb3d 2200 66bb ef6d 473e
00000140: 1d5b 9a3c 6f05 1e3d c1c4 00be 176d 4c3e
00000150: 6fd4 1dbe 9551 06be 95ec 983d b4ff 00bd
00000160: f1c1 e83d faf3 153e 40f5 40be bbee 873d
00000170: ce77 ef3b e3bb efbd b8a7 9abd 27db 593e
00000180: f206 b6bc 0987 87bd 9f84 b63d 66c7 263d
00000190: 0c70 a9bd 3f15 533e 09e6 c2bd bcf7 ab3d
000001a0: d5ec d4bd 11ba 7b3c b2c3 18bd f87b 1abe
000001b0: d5e4 a43d 1833 243c 895a a93d f78a 9bbd
000001c0: 16f5 31be 6989 b7bc 6f7c 31bd b969 d93d
000001d0: b3e4 12be d425 b0bd 71ad 123e 4cef f9bc
000001e0: e3e9 e7bd 887f d3bd dd0a d73d bd4e 0dbe
000001f0: 19c8 1bbe f939 2a3e 510f 89bc ed0c 1a3e
00000200: 7d98 28be ecf9 e2ba 6c90 cebd cbc0 14be
00000210: 938e 88bd 5cbd bc3d 783f 353d 78e0 02be
00000220: 39f4 613e 1f75 22be f273 203e 5d43 f73c
00000230: ac58 39be 1344 d8bc 4d02 5cba 55fb 15be
00000240: ac72 debd 4ff8 013e fc29 f23d 3b37 bc3c
00000250: 8c69 cd3b 0443 363d 5088 6f3d 5615 033d
00000260: e005 a4bd 48a7 04be 0f4d cfbd 298c 23bd
00000270: 75c5 25be 9cc8 123c c9fb cd3c 4350 37be
00000280: 65aa 193d e778 8c3d c31c 0fbd 8830 1abe
00000290: 3195 603d b284 ef3d 06d9 983d 725c 19be
000002a0: a645 203e 8611 f83d 89c5 56bd 1768 b43d
000002b0: 7ffc 01be 915f 96bd 1aaa ae3d 5d55 9bbd
000002c0: ebd8 6cbd a648 1fbc 1141 29bc cb28 9bbc
000002d0: fcf2 3b3d 08be 623d abfb 393b d2b6 243e
000002e0: e723 52bc 0e1a 583d fb11 743c f421 24be
000002f0: d394 39bd 27fb 3a3d ac0e 37bd 2004 f2bd
00000300: 172d d1bd d921 eebd f688 f7bd 2c22 183e
00000310: 18d2 9cbd df7e 01bc aa86 a93c bce3 bbbd
00000320: d8bb 67bb aac7 cd3d a108 37be bad7 7c3d
00000330: 0e16 f83d a11e ac3d 7ccb 08bd 1fe1 41bd
00000340: 6ffc 303d 8bbd 0d3d 859b e5bd ef60 74bd
00000350: 833c a5bc 1df0 31be 75fd 9ebd 998b bfbc
00000360: 8733 ed3d 49af 9cbd 6241 113d 9491 403e
00000370: 3ddc 303d 4dbc 3bbe a63f b33c 0be4 f9bc
00000380: 9e3e dbbd c455 c3bb b943 5f3d b729 3dbc
00000390: d308 6e3d b8cd 383e 1a4a 963d 9aad 43bd
000003a0: 7ded f33b bbe4 4e3e 9846 de3d 32ae 663d
000003b0: c4e6 0e3d a6ef f5bc 275d a03d 2ea1 26bd
000003c0: e437 3bbe 8012 d83d c6a8 333c 6d9a e8bd
000003d0: 3c63 61bd 7239 55bd d8e1 a73d 1f16 77bd
000003e0: 7890 25bd c286 89bd 3534 b0bd ba37 073e
000003f0: e6b6 33be 31e1 6e3d a526 e23d a47e d23c
0.11596831 -0.021411793 0.03819516 -0.004384043 -0.13649814 -0.002577991 0.09941108 -0.11200856
-0.028036783 0.06128294 -0.0047566188 -0.023935132 0.030002542 0.028227737 0.08632602 0.035063863
0.10850112 -0.08162383 -0.1425824 -0.14189869 -0.0046667685 -0.02957978 0.123708 0.0851357
-0.019175708 0.0012899403 -0.0004012271 -0.13749757 -0.016225433 0.06457778 0.037051875 -0.01568643
-0.056725916 0.07767561 0.050364297 0.08846927 0.028130995 -0.024228755 0.12553926 0.0044122217
0.044015717 -0.09603603 0.07938253 0.12702876 0.0011854948 0.10924306 -0.10030881 0.019762991
0.022245849 -0.08615444 -0.080725245 0.21636106 0.02505643 -0.095478445 0.082440354 0.15627863
0.021154173 -0.15641919 0.05833562 -0.13697924 -0.05733546 -0.16836399 -0.15208067 -0.08816847
-0.027008433 -0.027371747 0.013954966 -0.12298277 0.02562628 0.10641771 -0.006084345 0.019120745
0.006376183 -0.10243783 -0.0052538393 0.22912106 -0.031648763 0.11479572 -0.0035095294 0.1947553
0.018842274 0.0385794 -0.12575056 0.1996349 -0.15413068 -0.13117059 0.074669994 -0.031493858
0.113651164 0.14643851 -0.18843555 0.06637331 0.007307983 -0.117057584 -0.07551521 0.21275006
-0.022220109 -0.06617553 0.08912014 0.040717505 -0.08273324 0.20613573 -0.09516532 0.08396861
-0.103967346 0.015364186 -0.037296005 -0.15086353 0.08051459 0.010021947 0.08269221 -0.07594865
-0.17378649 -0.02240439 -0.04333156 0.10615868 -0.14345054 -0.08600965 0.14323975 -0.030509613
-0.11323907 -0.10327059 0.10500119 -0.13799568 -0.1521305 0.16623677 -0.016730936 0.15043993
-0.1646442 -0.0017316914 -0.1008614 -0.1452667 -0.06667819 0.09215805 0.04424998 -0.1278094
0.2206582 -0.1586499 0.1566923 0.030183489 -0.18100232 -0.026399648 -0.0008392677 -0.14646657
-0.10861716 0.12692378 0.11824414 0.022975555 0.0062686857 0.044497505 0.058479607 0.03200277
-0.08008933 -0.12954438 -0.1012212 -0.03992859 -0.16188605 0.008958962 0.025144475 -0.17901711
0.037516017 0.06858998 -0.03493954 -0.15057576 0.05482978 0.116952315 0.07463269 -0.14976671
0.15651569 0.12112717 -0.052434478 0.08808916 -0.12693976 -0.073424466 0.08528538 -0.07584641
-0.057824057 -0.009721911 -0.010330454 -0.01894035 0.045886025 0.05535701 0.0028378766 0.16085365
-0.012825943 0.052759223 0.014896865 -0.16028577 -0.045307945 0.045649674 -0.044691727 -0.11817193
-0.10213678 -0.1162755 -0.1208667 0.14856786 -0.0765726 -0.007903784 0.020694096 -0.09174296
-0.0035359766 0.100478485 -0.17874385 0.06172917 0.121135816 0.084042795 -0.033397183 -0.047333833
0.04320949 0.03460459 -0.112113036 -0.059662756 -0.020170456 -0.17376752 -0.07763187 -0.023381995
0.11582094 -0.076506205 0.035462745 0.18805534 0.043178786 -0.1833355 0.021880936 -0.030504247
-0.10705303 -0.005961152 0.054507945 -0.01154559 0.058113884 0.18047225 0.073383525 -0.04777298
0.0074440823 0.20204441 0.108533084 0.05631847 0.034888044 -0.0300215 0.078302674 -0.040681057
-0.1828304 0.105504036 0.010965532 -0.113575794 -0.055026278 -0.052056737 0.08197373 -0.06032383
-0.04042098 -0.06715156 -0.08603708 0.13204852 -0.17550239 0.058320228 0.11042527 0.025695153

lstm.weight_hh_l1 f4 [200, 50]
00000000: 51ed b73c 9c4c 61bd dbd3 fe3d c312 103e
00000010: b444 cabd 2c7f c4bd a674 d13c 9421 103e
00000020: ecfb 08be e00b b63c 1c7e ab3c 18b1 62bd
00000030: 45b3 0e3d a6bf 1abd 16ec df3b e764 17be
00000040: 107f 13bd 3286 f43d 97e4 6d3c 4936 b8bd
00000050: 3d37 47bd 988b abbd beb1 cc3d 2129 b0bd
00000060: bf25 0dbe 2f46 9c3d 10f6 debd 50bb 22b9
00000070: a03f 763d a4ca 07bd 388a 2cbd 389c 1b3e
00000080: d199 023e c6d2 cebd 6411 f4bd c1be e83d
00000090: 2b28 4bbd 1d25 953d c42b 45bd c7b5 3cbd
000000a0: c357 203e 186e 833c bc21 ff3c 5bbe 973c
000000b0: 38f5 033d 3cff ebbd dd61 debd 4c2c 5fbd
000000c0: 20a0 24bd bf4c 03be 4738 68bd 080c bdbd
000000d0: fae5 19bc bf86 f83d e8b5 403d c1e6 873d
000000e0: fa51 7d3d 3d43 883d 947c 613b 9a43 f0bd
000000f0: e066 70bd a58e 493d ccbf 78bd f901 4dbd
00000100: 9a72 97bb f56f 03be 93f1 1e3e 96f1 983d
00000110: d08f 8ebd c3d7 d2bd 052a d3bc b3a3 213b
00000120: 19b7 16bc 8670 0bbd d900 dd3c 982b 903d
00000130: dee0 8abc 1881 f23c 035e 0dbd 0887 293e
00000140: 3af1 b43b 6eec e0bd b361 b5bd f5d9 20be
00000150: 8bb3 1ebe b6b9 be3c 3e01 ddbd 1239 62bd
00000160: 28fb bf3c aa7b db3d 32c9 fa3d 2d29 cb3d
00000170: 80e5 c8bc b1c4 8b3c 907d f43d 7951 68bd
00000180: fcc1 fcbd c3b8 9d3d 531d b53b fde2 3d3d
00000190: b224 fbbc a367 0a3e 981a ea3d f138 c03d
000001a0: dd7c 3fbd 2f56 d8bd c596 b53b cfd3 0bbd
000001b0: e7b4 ea3d 5fa6 c6bd 207e 24be a99d 043d
000001c0: f097 14be b07c 133e de54 b8bc c318 963d
000001d0: bc7b b7bd 083c 053e 1f17 d4bd 570b 853c
000001e0: f94f 0b3e 51bb cc3d 26eb e4bd 73be 0d3e
000001f0: 9aab 973c 246a 7ebd 5d0f 80bc f7d4 4abd
00000200: 3f6b 913d 378e db3d f870 733b 437f 573d
00000210: 70e7 f1bd f333 b03d 2518 d83d f8a7 683d
00000220: ecf7 f83b 67f5 e7bd 5d19 49bc 9430 f53c
00000230: f0e3 0fbd 4811 2c3d 754b 3c3d 19e5 c53d
00000240: 85f1 c63b 9ee0 eabd a430 d53d c089 45bd
00000250: c189 1d3e 9714 50bd e7ef 843d 65d3 083e
00000260: fffc 24bd 45cf f5bd 0ec3 243d 57ae 163c
00000270: 4adc 5abd fe45 61bd 6ff1 0bbe 991c ab3d
00000280: 5256 833d f300 4cbd 6ecb b33d 06c1 06be
00000290: 939c 05be 516f 453d 0995 c83d fb14 16be
000002a0: 0ab6 2ebd 4a63 f53d 707b 1f3e 0543 c43d
000002b0: 9df8 43bd 9132 073b 7a93 1fbc 90be de3d
000002c0: 110d 893d 7f35 b5bd 9cde 83bd 5a5a b33d
000002d0: b094 823c 0e5c f3bd cdd5 51bb 2ed1 e3bd
000002e0: 348b 06be 515d 983d e604 5b3d 02d5 063e
000002f0: a289 d0bd 8faf 873c c27e 9e3d ab64 3c3d
00000300: 5d17 b0bd c30e a03c 8317 cfbd c1ce 85bd
00000310: fc11 923d 8598 bf3c b6f6 053e 5f0d 16bc
00000320: eb6d 45bd 8ddc a83c 3f03 9ebd cf1f d8bd
00000330: f8b3 843b c1f3 8b3d 706a ee3d e368 e63c
00000340: 72eb 8d3d 17c6 29bd ecdb a43d c132 d13d
00000350: a926 64bd 7abd b6bd 1561 8f3d 9c14 0ebd
00000360: ebf6 4c3d 4153 6abd 1bbe fdbd 66c5 643d
00000370: 1538 ebbd 30f6 4fbd e31d d63d df4b 0d3e
00000380: 9ddd 03bd 398b 1dbd 88aa 0e3d 3d10 6fbd
00000390: e790 b63d ca33 7b3d ae5e 0b3e e55f c83d
000003a0: 9efd c0bd 74f4 33be 1de0 d4bd 0057 df3d
000003b0: 2041 b83d 24f5 913d 54c0 43bd 1b11 283e
000003c0: 8ced 8bbd 642d 753c 9c20 823d 1561 59bd
000003d0: 3b9a 3d3c 3bba 08be b38e 013e cea8 613d
000003e0: f041 07be 15b7 54bc 8060 3bbc e3ad c5bd
000003f0: ae5d b53d 0015 f6bd bc4a 7bbd dc6c d03b
0.022452028 -0.0550047 0.12442752 0.14069657 -0.09876385 -0.095945686 0.025568318 0.14075309
-0.1337735 0.02222246 0.020934157 -0.05534467 0.034838933 -0.037780426 0.0068335636 -0.14784585
-0.036009848 0.11939658 0.014519832 -0.08994729 -0.048636664 -0.08376235 0.09994839 -0.08601595
-0.1378393 0.07630574 -0.108867764 -0.00015519303 0.06011927 -0.033152238 -0.042124003 0.15196311
0.12753989 -0.100987956 -0.119173795 0.113645084 -0.049598854 0.072824694 -0.04813744 -0.046071794
0.15658478 0.016043708 0.031144015 0.018523386 0.03221628 -0.115232915 -0.1085851 -0.054485604
-0.04019177 -0.12822245 -0.056694295 -0.092308104 -0.00939321 0.12135076 0.04704848 0.0663581
0.061845757 0.0665345 0.003440653 -0.11731644 -0.05869186 0.049208302 -0.060729787 -0.05005071
-0.004621816 -0.12835677 0.15521841 0.07467954 -0.06961024 -0.102950595 -0.025776872 0.0024664223
-0.009198927 -0.034042858 0.026977943 0.07039565 -0.016952928 0.029602572 -0.034513485 0.16555417
0.0055219205 -0.109825954 -0.08856525 -0.15708144 -0.15498178 0.023281913 -0.107912526 -0.055230208
0.02343519 0.107169464 0.12245406 0.09919963 -0.024523497 0.017061563 0.11938012 -0.056718323
-0.12341687 0.07701256 0.0055271774 0.04635905 -0.030657146 0.13516097 0.114308536 0.09385861
-0.04674994 -0.10563313 0.005541655 -0.034137543 0.11460286 -0.096997015 -0.16063738 0.03237692
-0.14511085 0.14403033 -0.022501405 0.07328942 -0.08959147 0.13011181 -0.103559725 0.016240759
0.13604726 0.09996665 -0.111776635 0.13842182 0.018514443 -0.062112942 -0.015632326 -0.049519505
0.07100534 0.10720485 0.0037146192 0.0526116 -0.11811721 0.086036585 0.1055148 0.056800812
0.007597914 -0.11326104 -0.0122741135 0.02993039 -0.035129488 0.04200867 0.0459704 0.096628375
0.006071272 -0.114686236 0.10409668 -0.04822707 0.1538458 -0.050800886 0.0649107 0.1336189
-0.04028034 -0.12002424 0.04022508 0.009196839 -0.05343274 -0.05499839 -0.13666318 0.08355064
0.06412949 -0.049805593 0.087790355 -0.1315957 -0.1304801 0.048201863 0.09794051 -0.14656441
-0.042654075 0.119818285 0.15574431 0.095830955 -0.047844518 0.0020629505 -0.009739751 0.10876191
0.06691945 -0.08848094 -0.06438944 0.087574676 0.01594004 -0.118827924 -0.0032018304 -0.11123882
-0.1313904 0.07439674 0.05347147 0.13167194 -0.101825014 0.016563205 0.07739021 0.045994442
-0.08598206 0.019538289 -0.101119064 -0.06533576 0.071323365 0.023388157 0.13082394 -0.009158461
-0.04820053 0.02061298 -0.07715463 -0.10552942 0.0040497743 0.06833602 0.11641395 0.028126186
0.06929673 -0.04144868 0.08049759 0.10214759 -0.05570093 -0.089228585 0.07000939 -0.034687623
0.050040167 -0.057208303 -0.12389775 0.055852316 -0.11485306 -0.050771892 0.10454919 0.13798474
-0.03219377 -0.03846285 0.0348306 -0.058365095 0.08914357 0.061328687 0.13610336 0.097839154
-0.09423374 -0.1757372 -0.10394309 0.10905266 0.089967966 0.07126835 -0.04779084 0.16412775
-0.06832418 0.014964435 0.06353876 -0.0530711 0.011572416 -0.13352291 0.12652092 0.055092625
-0.13208747 -0.012983103 -0.011436582 -0.09652307 0.088557586 -0.12015724 -0.06135057 0.0063606333

lstm.bias_ih_l1 f4 [200]
00000000: 2c4a 31bc cd44 213e 2f4c 193e 9242 ae3d
00000010: 22cc d03d 0292 0bbc ccff 213e 8baf 343c
00000020: 6518 703d ac59 be3b 256b 063d d7b6 e2bb
00000030: 9980 42bd 45c3 643d 0f68 a33d 7ee6 e3bc
00000040: 328b ec3d d17d e13d 001f cd3d 3801 f5bd
00000050: fb58 6dbc 10ec a03d 9b69 bbbd 58e5 6d3c
00000060: 9f89 623d aac7 903d 84af 0b3e 13ad 0dbe
00000070: 8f40 09be 342c 60bd a00c 4e3b 05c5 3e3d
00000080: f23d 793d a39a 77bd 079d 2c3e 33e2 0ebe
00000090: 6d76 2b3e 8420 cd3d e716 fdbc dd62 663c
000000a0: 8050 66bd 4763 0d3e c43b 973d 4a1e 023d
000000b0: fe06 073e 5cee e63d 1b7e 1cbd 6b9b 833d
000000c0: cb9c d8bc ad85 e93d 7fd9 bc3d a596 0f3d
000000d0: d5d4 d8bd 7f08 e03c d3e4 a8bd bae0 f3bd
000000e0: 99ff ce3c c2bb b53d be1e 61bc d02b 3dbd
000000f0: 706c 803d 3df7 3dbc 907b e3bb e2f4 2f3d
00000100: 3e3d 083e b617 99bd eef5 013d 43a1 4e3c
00000110: 9b6e eb3c a3b5 343d 7fcf a93d a481 57bd
00000120: adc0 acbd be9d 953d d1a6 debb a3d7 453d
00000130: affc 82bd 5485 c4bd 1fa6 0bbe 8b54 dabd
00000140: f5a7 863d 14ed 08be c0da 923d 5929 dfbd
00000150: b172 5cbc 897d 4a3d 4b85 9ebd b3bb c53d
00000160: 9299 efbc c765 5dbd 4b66 04be 1ee1 c13d
00000170: 3fa4 063e 502b cf3d 6df1 833d 884e 7abd
00000180: 5a42 cb3d eff9 173c 609d efbd 419d b5bd
00000190: 2663 d5bc 0055 e8bd 98c2 85bd 1e09 973b
000001a0: e882 d03d 4881 1bbe 4251 05bd 7754 d8bc
000001b0: ed07 14be 0dd1 dbbc fa6b 61bd ad63 c83d
000001c0: 6431 92bd 4779 c2bd 613a afbd 6c55 fd3d
000001d0: 601b 22bd 5c38 c4bd 5b03 4bbd 4267 f9bd
000001e0: 7dca b43d 2abc 5a3a 50dc 61bd dfbf 083e
000001f0: 628f c23c d3bf 763d 44d1 d73d 88a7 f1bc
00000200: 15e3 dfbd b0ea 7bbd 9492 eb3c ba63 20bd
00000210: 6eac adbd acee 11bd 09f9 dcbd 0585 e3bc
00000220: 3c50 d8bc 3691 703d 8e35 e4bc 5fac 513d
00000230: 3f11 f33d a020 2cbd dcaa 813c 202b 45bd
00000240: ad76 833d cfe6 29bd ebb2 8a3d 5ed5 983d
00000250: 4551 a43d 49f0 823d e4cf 933d 6605 24bd
00000260: 4227 08bc 011a ca3d bf72 af3d 6aad 053e
00000270: afa0 dc3c 55c8 07be 2718 e0bd 7984 99bd
00000280: fec4 bdbd cd43 853d b778 573d c781 f23c
00000290: bebf a1bd d1f8 823d f8b8 133c a088 723c
000002a0: 7c7c 983d e94b eb3c e287 283e 0042 11bd
000002b0: 5008 693a 1907 cd3d bdfa 23be aaa1 863d
000002c0: 1611 b33d fcdc 083e 8f8f bf3d 3eb4 9e3d
000002d0: 331d 573d b2d1 223e 3b4f f3bc 4854 23bd
000002e0: c790 24bc c644 0dbe 0b3e 18bc 451b 863c
000002f0: a5be bcbd 60b6 c93c bf3f 433d 68d0 b53c
00000300: 4372 f53c 0aec 373d 4c11 543e c486 873d
00000310: 65e3 ef3a 7ee5 463d 14e4 d13d 43e9 babc
-0.010820907 0.15748902 0.14970468 0.08508791 0.10195185 -0.008518698 0.15820235 0.011028181
0.058617014 0.0058090296 0.032817025 -0.006918769 -0.04748592 0.055850286 0.07978832 -0.027819868
0.11549987 0.11010326 0.100156784 -0.11963123 -0.014486547 0.07857525 -0.09151002 0.014520012
0.055307027 0.07069333 0.13641173 -0.13835554 -0.13403533 -0.054729655 0.003144063 0.04657461
0.06085009 -0.060450207 0.16856776 -0.13953476 0.16744395 0.100159675 -0.03089471 0.014061657
-0.056229115 0.13807403 0.07384446 0.031767167 0.13186261 0.11275932 -0.0382062 0.06426128
-0.026441952 0.1140245 0.092211716 0.035055775 -0.105874695 0.027347801 -0.0824677 -0.119080976
0.025268363 0.088737026 -0.01374024 -0.04618436 0.06270683 -0.011594591 -0.00694222 0.042958148
0.13304612 -0.074752256 0.031728677 0.01261169 0.028739264 0.044118535 0.0829153 -0.05261387
-0.084351875 0.073054776 -0.0067947884 0.04830135 -0.06395852 -0.09595743 -0.13637589 -0.106606565
0.06575004 -0.13371688 0.071706295 -0.10896558 -0.013455079 0.049436126 -0.07740267 0.096549414
-0.029248033 -0.05405214 -0.12929647 0.09466766 0.13148592 0.10115683 0.06442533 -0.06111005
0.09924765 0.009275897 -0.11699939 -0.088678844 -0.026048254 -0.113443375 -0.065312564 0.004609241
0.101812184 -0.15186036 -0.032548197 -0.026407463 -0.14456148 -0.026833082 -0.055034615 0.09784637
-0.07138327 -0.09495788 -0.08556057 0.123698086 -0.039576888 -0.09581062 -0.049563747 -0.12177898
0.08827684 0.00083440787 -0.055141747 0.13354443 0.02375001 0.06024153 0.10537961 -0.02949883
-0.10931984 -0.061503112 0.028756417 -0.039157607 -0.08480154 -0.035628006 -0.10789687 -0.02777339
-0.026405446 0.058732234 -0.027857568 0.051189777 0.11868524 -0.0420233 0.015828542 -0.04813683
0.0641912 -0.04147988 0.06772407 0.074625716 0.080233134 0.06393487 0.07217386 -0.04004421
-0.008310141 0.09868241 0.08566808 0.13054433 0.026932089 -0.13260014 -0.10942107 -0.0749597
-0.09266089 0.065070726 0.052605357 0.029602898 -0.078979 0.06395114 0.009016268 0.014803082
0.074456185 0.02872272 0.16458085 -0.035463333 0.0008889483 0.100111194 -0.16013618 0.06573804
0.08743493 0.13365549 0.093535535 0.07749222 0.05251808 0.15900305 -0.029700866 -0.0398753
-0.010044283 -0.13795766 -0.009292136 0.016370425 -0.0921605 0.024623096 0.047668215 0.022194102
0.02996171 0.04490284 0.20709723 0.066175014 0.0018302022 0.048558705 0.102485806 -0.022816306

lstm.bias_hh_l1 f4 [200]
00000000: fe06 30bc f437 cb3d da4a 9c3d 2079 f8bc
00000010: 761d 87bd 1e07 1ebd 16d8 ee3d b089 e63d
00000020: db85 13bd 586a ac3c 13e7 cfbd 498a c93c
00000030: 4dde e1bd b944 d13b ac40 d83c 6532 e5bd
00000040: faaa b53c 594b 0e3d af96 3abd b69b e03d
00000050: 12b4 203e 2d3b 373d 83c2 04bd cbf4 29bd
00000060: ed92 b9bd 1f39 d8bd 150d 153a 89ef 80bc
00000070: 0042 14be f30f e73d 51da 003e fce3 e23d
00000080: af2e cebd 7601 69bb 0cdd a43d 8a54 583b
00000090: 57a5 423c b6f0 453e 6f8d 633d 8401 05be
000000a0: 1885 bd3c 085d cf3d ee06 3b3e 5d66 163e
000000b0: 3628 623e bf9a 033e 454a 783d 387e 3cbc
000000c0: 3519 78bd b568 0ebc 3039 2fbe 387d b7bd
000000d0: bd83 5c3d 833c 9c3d 1793 35bd 3d53 b5bb
000000e0: 00aa 95bc 5e86 e9bd ff62 073d eaf6 5d3d
000000f0: 4161 30bd 2d5a 0f3e e5d1 a23d a4fa 1b3c
00000100: d82b c13c 02c3 c1bd ce13 febd f34f cbbd
00000110: 7bd6 eebd 0f5b b73d bfb3 3dbb 95ad a7bc
00000120: 3316 21bc 96f1 213d 2f4b cc3d 12f7 013c
00000130: a9e3 e6bd 15c5 f3bd 4689 d83d bd51 fcbd
00000140: 58d5 5abd 8dfc 4b3d a8d8 eb3d 881f 88bd
00000150: 47c8 4f3d a08b 17be 14b3 83bc 22a8 96bd
00000160: 2c86 04be 9448 0bbe 7b9f 8abc 21ad ddbd
00000170: 0ce6 f8bd d626 50bc 96df 57bd 8f68 d6bd
00000180: e0c9 59bd 3618 efbd 3be7 003e c144 26be
00000190: ca83 913c e098 f7bc e962 ddbd 0692 00bc
000001a0: 833d f6bd 258b ac3d 8622 f1bd d1dd c5bd
000001b0: bb9e 04be 486f 0cbe 2914 c0bd 143e d53c
000001c0: 74e1 d6bb 2bee ab3d 7d31 8c3b 34c9 e8bb
000001d0: b41e 513d da45 f83d 0dc9 103d cc60 a2bc
000001e0: a563 ecbc 820b a33d d969 f33c 1272 99bc
000001f0: e607 7e3d e4de ae3d 465d 403d 623f 57bd
00000200: 709c 933c 5f1f 8b3d 5d11 35bc 05bf 613c
00000210: a4db 7b3d 0ad4 4abd 5328 6bbb a258 b93d
00000220: b320 0cbd 095b 50bd 19e5 b0bc 60bc eb3d
00000230: e218 04bd 86c9 c33d 9ceb 0a3e 1e8d 27bd
00000240: 716a 7f3d 597c da3d 788d dfbd ff23 00be
00000250: cca1 e63d 4cb8 7d3d 92ab 293e 8801 d43d
00000260: 5aed 81bd bede c73c 632a a9bc 7460 9dbd
00000270: 7aa1 9dbd e9a0 21bd 8a62 d93d 8a3f a1bd
00000280: a999 713d 5c04 973d 151c 093e 6460 8c3d
00000290: 898a 2b3d fafe e33c 0642 2dbb 3432 363e
000002a0: d778 c3bd 1213 733d 7a40 cfbc 1c6d 2b3c
000002b0: 2370 bf3c be08 e1bd 195f b83d 6e7c 10be
000002c0: 59ca 773e 06d1 083d b456 fabb 3695 0dbe
000002d0: 030a f63d 9b8c e9bb 3db0 d1bc 8e7d 64bc
000002e0: 85ad 0c3d 2fc9 57bd ca84 99bd fdd1 553e
000002f0: ba47 9d3d acb7 6bbc 9729 03bd f660 4bbd
00000300: fd64 ca3c b1a1 aabc c272 0f3d a9d2 a4bd
00000310: 855c d63d fcd7 873c dcbf 2dbc c8ec 85bc
-0.010743855 0.099227816 0.07631464 -0.030331194 -0.06597416 -0.038581006 0.11662309 0.112567306
-0.036016326 0.021046802 -0.10151496 0.024602072 -0.11028729 0.006386366 0.026398025 -0.111912526
0.022176255 0.034739826 -0.04555386 0.109671995 0.15693691 0.04473417 -0.032412063 -0.04149322
-0.09061227 -0.1055777 0.00056858483 -0.01573922 -0.14478302 0.11282339 0.12583281 0.11078641
-0.10067498 -0.003555385 0.08049974 0.0033009374 0.01188024 0.19330105 0.055554803 -0.1298886
0.023134753 0.10125166 0.18264362 0.14687486 0.22085652 0.12852 0.060617704 -0.011504702
-0.060570914 -0.008691956 -0.17111659 -0.089594305 0.053836573 0.07628729 -0.04432973 -0.0055336044
-0.018269539 -0.11402582 0.033053394 0.054190554 -0.0430615 0.13999243 0.079501905 0.009520207
0.023580477 -0.09461023 -0.12406121 -0.099273585 -0.11662003 0.08952915 -0.0028946248 -0.020468513
-0.009831953 0.039537035 0.09975278 0.007932441 -0.112738915 -0.11902825 0.10573058 -0.12320278
-0.053426117 0.049801398 0.11515933 -0.06646639 0.05072811 -0.14799356 -0.016076602 -0.073562875
-0.12941808 -0.13601905 -0.01692175 -0.10824037 -0.12153253 -0.012704572 -0.052703463 -0.10469162
-0.05317104 -0.1167454 0.12588207 -0.16237165 0.017763037 -0.030224264 -0.10809881 -0.007847315
-0.12023451 0.08424977 -0.11774163 -0.09661449 -0.12951176 -0.13714325 -0.09378845 0.026030578
-0.006557638 0.08395036 0.0042783604 -0.0071040634 0.05105467 0.12122698 0.035347987 -0.019821547
-0.028856108 0.07961179 0.029713558 -0.01873115 0.06201925 0.08538607 0.046963952 -0.05255068
0.018018931 0.06793093 -0.011051503 0.013778453 0.061488762 -0.049518622 -0.003588219 0.090501085
-0.034210872 -0.050868068 -0.021593617 0.11510539 -0.032250293 0.09559922 0.1356644 -0.040906064
0.06235737 0.10668249 -0.10915655 -0.12513731 0.11261329 0.061943337 0.16569355 0.103518546
-0.06344099 0.024398204 -0.020650094 -0.076844126 -0.07696815 -0.039460097 0.10614498 -0.07873447
0.058984432 0.07373878 0.13389619 0.068543226 0.041880164 0.027831543 -0.0026437058 0.17792588
-0.09544533 0.05934436 -0.0252993 0.010463025 0.0233689 -0.109879956 0.090025134 -0.14109966
0.24198283 0.033402465 -0.0076397303 -0.1382645 0.12013628 -0.007127357 -0.025596732 -0.01394595
0.03434517 -0.052682098 -0.07496031 0.20880885 0.076796964 -0.0143870525 -0.032022085 -0.049653016
0.024706358 -0.020829054 0.03502155 -0.08047993 0.104668655 0.016582482 -0.010604825 -0.016348258

fc.weight f4 [4, 50]
00000000: 0cec 3d3d 5018 453c de88 f13d 0885 3e3d
00000010: 9ebd fdbc 983d 05bd 26e8 11be bc4c 23bd
00000020: ad1d a3bd 6355 03be 9589 86bd 640e 253e
00000030: 436c 9a3d 2ddb a73c 629f fcbc d755 5a3d
00000040: d315 f1bd fba3 2b3e fb8c b9bb 8e79 22be
00000050: 0bae b3bd 0583 1a3d 8505 01bb 8b78 fa3d
00000060: 30d8 2e3d 5f5f c23d e3c3 ab3d 1748 d7bd
00000070: 7f46 dd3d 19a3 773d 726b a8bd cb45 1fbd
00000080: ec7e 05be 834b e53d c8b8 b13d cae8 05bd
00000090: c3eb 1c3e 4b9b f8bd 449f dd3d e668 15bd
000000a0: a148 f7bd dc8f d2bd 8180 1d3d 88f8 0dbe
000000b0: afdd 763d 3ebe 1d3e 4981 81bd 9b04 2bbe
000000c0: 0632 043e 286e 84ba caab 5c3d b851 86bd
000000d0: 16b7 88bd 259e 033e 0c72 e2bd 6f54 2ebe
000000e0: 8261 89bc 678d 833d 5229 26be dacf 97bc
000000f0: 1114 03bd e353 1e3e e85c 82bd 1764 e23d
00000100: 5d21 8dbd 23a5 8e3d b4de f13b 7db2 823c
00000110: 4a21 1cbe 1296 33bc ac86 41bd 883a 99bb
00000120: 6925 c1bd 8386 e13d 3386 d63c 5b5e dfbd
00000130: 6a55 143e 5ee8 103e da55 083d 193e bbbd
00000140: a369 b1bd 8edc 1abe d77a 21be 1361 973d
00000150: 9096 eb3d cce6 233e c348 7f3d 4f52 11be
00000160: cd79 f2bc 1ee1 c8bd 0ac6 863d da01 59bd
00000170: a7ac d53d c72f db3d 94c5 c13d bce0 aebd
00000180: c2d7 d73b 183d 03bd a464 323d 6d40 c2bd
00000190: d37f b63c e686 73bd 46a1 afbd 8c2d a53c
000001a0: f998 1dbd 31d9 2abe 47f2 0cbe c23e 10be
000001b0: 9396 87bc 4532 1ebe c8f6 7b3d d53a 083e
000001c0: cb9e e33c e79c 5dbc 7dd3 fabd 51de a83c
000001d0: d21b 553c 2392 cf3d 7690 5e3d 639c 04bc
000001e0: 05d4 b6bd db9b c3bc 803d 93bd 5afe 80bd
000001f0: 16a2 ecbd 74ce b2bd 3a25 32bd 1ad4 ac3d
00000200: d865 063e afc2 e1bd 422b 3d3d a621 9fbc
00000210: 2644 17bd a273 14bd 0a45 e63c 3e19 81bd
00000220: 8e28 08bd c2f1 7dbd 3d2b 08be 015a 38bb
00000230: 935d 0ebe 4da0 14be 8241 183e 6c77 1abe
00000240: 97f9 473e cb15 ec3d 521e fabd 15ce 2ebe
00000250: 03b2 703d 3457 8bbd 7d5a 333c db80 20bd
00000260: b0d2 95bd 2381 b8bd afbd 0abe 9baa 3dbe
00000270: 4690 11be d2ee 4cbd 2616 b6ba 8be4 e63d
00000280: 5190 86bc ca96 f53d 16b5 19bd de14 223e
00000290: ee63 dbbb 047e 1e3e 6c33 f0bd d955 683d
000002a0: 9c2a 803d eac9 3fbc 7e8e 9e3c c1f4 b53d
000002b0: 25bb 913d 8e5e c43d cc97 713d 2357 7b3c
000002c0: e57d be3d 916b 68bd afab f6bc 564a dd3c
000002d0: 5a6b 97bd ce59 213c f230 56bc 4176 023e
000002e0: 7376 d53d ae5e cfbc 8c3d 2b3e 538b 02be
000002f0: 3593 b2bd 473a 09be cecb e6bd 4c9e 3abe
00000300: 3f7c 12bd 9c91 81bc 5afe e93c 0663 1a3e
00000310: c09c 053d 067a 0bbe 9e3e de3d 5d64 b8bd
0.04636769 0.012029722 0.117936835 0.046513587 -0.030974206 -0.032529444 -0.14248714 -0.0398681
-0.079646446 -0.12825541 -0.065692104 0.16118771 0.075401805 0.020490253 -0.030837718 0.05330452
-0.11771741 0.16761772 -0.005662558 -0.15866682 -0.087734304 0.037722606 -0.0019687128 0.12230023
0.04268664 0.09490847 0.08386972 -0.10511797 0.10804462 0.060458276 -0.082236186 -0.03888492
-0.13036698 0.11196043 0.08677822 -0.032692708 0.15324311 -0.12138995 0.10821393 -0.036476992
-0.120744 -0.10281345 0.03845263 -0.13864338 0.060270008 0.15404603 -0.06323487 -0.16700976
0.12909707 -0.001010363 0.05387477 -0.06558555 -0.06675546 0.12853296 -0.11056909 -0.17024396
-0.016770128 0.06423455 -0.162267 -0.018531729 -0.03200156 0.15461688 -0.06365377 0.11054247
-0.06891129 0.06965091 0.0073812846 0.01595425 -0.15247074 -0.0109610725 -0.047247574 -0.004676167
-0.094309635 0.11011984 0.026187038 -0.10906669 0.14485708 0.14151141 0.033285 -0.091427036
-0.08662727 -0.15123197 -0.15769516 0.07391562 0.11503327 0.16006011 0.06232525 -0.14191554
-0.029599095 -0.09808563 0.06580742 -0.05298028 0.104333214 0.10702472 0.09461513 -0.085389584
0.0065869996 -0.032040685 0.04355301 -0.094849445 0.022277748 -0.05945482 -0.08575682 0.02016332
-0.038475964 -0.16684414 -0.13764296 -0.1408644 -0.016551292 -0.15448864 0.061514646 0.13303693
0.02778568 -0.013526178 -0.122473694 0.020613821 0.013007121 0.10135295 0.054336987 -0.008093926
-0.08927158 -0.023878029 -0.071894646 -0.06298514 -0.11554353 -0.08730784 -0.043492533 0.08438893
0.13124788 -0.11023461 0.046183832 -0.019425225 -0.036930226 -0.03624309 0.028109092 -0.06303643
-0.0332418 -0.061998136 -0.13297744 -0.0028129818 -0.13902883 -0.14514275 0.14868739 -0.15084618
0.19528805 0.11527594 -0.122128144 -0.17070802 0.058763515 -0.06803742 0.010946867 -0.039185386
-0.07315576 -0.09009006 -0.13548921 -0.18522112 -0.14215192 -0.050032444 -0.0013892099 0.1127406
-0.016426237 0.11991651 -0.037526213 0.15828273 -0.006695262 0.15477759 -0.11728558 0.056722496
0.06258127 -0.011705855 0.019355055 0.08884574 0.07115773 0.095883474 0.058982655 0.015340599
0.09301356 -0.05674321 -0.030111162 0.027012985 -0.073935226 0.009848071 -0.013073193 0.12740423
0.10422983 -0.025313701 0.16722697 -0.1274846 -0.08719484 -0.13401137 -0.112693414 -0.18224448
-0.03576302 -0.015816502 0.028563667 0.15076837 0.03262019 -0.13620767 0.10851787 -0.09003518

fc.bias f4 [4]
00000000: 7a81 15bc b1b8 adbc 4191 30bd 0169 433d
-0.009125108 -0.021206232 -0.043107275 0.04770756
