results/models/best_model.pth (torch, 128117 bytes, 9 tensors)

lstm.weight_ih_l0 f4 [200, 1]
0	0x3e3b37e7	0.18283044
1	0x3e4c57f2	0.19955423
2	0x3b93917c	0.004503427
3	0x3dcd39b5	0.10020772
4	0x3785fe22	1.5973175e-05
5	0xbd92cb3a	-0.07167669
6	0x3d8a31f7	0.06747811
7	0x3ccb6f06	0.024833214
8	0x3e93c94b	0.28864512
9	0x3e67222c	0.2257163
10	0x3daa0df3	0.08303442
11	0x3df356b6	0.11881773
12	0x3d5cdc3a	0.053920962
13	0x3e17510a	0.14777008
14	0x3dce92b0	0.10086572
15	0x3df1f274	0.118138224
16	0x3e1e56b5	0.15462764
17	0x3e4a36eb	0.19747512
18	0x3e207d80	0.15672874
19	0x3e1cc99b	0.15311281
20	0x3cc0e6ba	0.023547519
21	0xbd86b6dd	-0.06577847
22	0x3d74e3b9	0.059787486
23	0x3dd050c9	0.101716585
24	0x3d99a80f	0.07502758
25	0xbcc0a56c	-0.02351638
26	0x3d6ff8e5	0.058586974
27	0x3d064536	0.03278085
28	0x3e767d98	0.24071348
29	0x3dc86b32	0.09786071
30	0xbe3339e8	-0.17502558
31	0xbce41adf	-0.027844844
32	0x3e68e8f0	0.22745109
33	0x3b8757ed	0.0041303546
34	0x3b6643a9	0.0035135543
35	0x3e33d22f	0.17560647
36	0x3d8b0be2	0.06789376
37	0x3e56a494	0.20961219
38	0x3cac670f	0.021045236
39	0x3d2c5e65	0.04208221
40	0x3e5a0653	0.21291475
41	0x3e879bd7	0.26486084
42	0x3d1cd109	0.03828529
43	0xbc4f89f3	-0.012667167
44	0x3cbb049d	0.022829348
45	0x3e11b7d2	0.14230278
46	0x3e0c624a	0.1370937
47	0xbdff91bb	-0.12478968
48	0x3dae62bb	0.08514925
49	0x3e15b996	0.14621577
50	0x3d5efd71	0.05444092
51	0xbddb3d58	-0.1070506
52	0xbdace1e2	-0.08441521
53	0x3dfe68e4	0.1242235
54	0xbe0e41f4	-0.13892347
55	0x3bc6a923	0.006062643
56	0x3d8416d6	0.06449668
57	0x3d3bf2d0	0.04588586
58	0x3e8f99e4	0.28047097
59	0x3e42237e	0.18958852
60	0xbd07d5cb	-0.033162873
61	0xbd4fc1af	-0.05072182
62	0xbe71d030	-0.23614573
63	0xbe0be9a4	-0.13663346
64	0x3e383cad	0.17991896
65	0x3e454a2d	0.19266577
66	0x3e12d1da	0.14337865
67	0x3e1d4d0d	0.15361424
68	0x3dab117a	0.08352943
69	0xbcea136d	-0.028573716
70	0xbd19fda4	-0.037595406
71	0x3e001245	0.1250697
72	0x3e5e155d	0.21687837
73	0x3e0feaa2	0.14054349
74	0x3c397478	0.011319272
75	0x3e564d26	0.20927867
76	0x3da75428	0.081703484
77	0x3e246f61	0.16058113
78	0x3e23a365	0.15980299
79	0xbc787577	-0.015164725
80	0xbc16a2e2	-0.009194108
81	0xbd43dc09	-0.047817264
82	0x3b97d1fa	0.0046331855
83	0xbe5a42f8	-0.21314609
84	0x3ddc527f	0.107579224
85	0x3e0a0406	0.13478097
86	0xbd414781	-0.047187332
87	0x3b757cfa	0.0037458525
88	0xbda03833	-0.07823219
89	0x3dc6f254	0.09714189
90	0x3e17b66f	0.14815687
91	0x3e0bb399	0.1364273
92	0xbd83becd	-0.06432877
93	0x3d571de8	0.052518755
94	0x3e5adab1	0.21372487
95	0xbd04f325	-0.032458443
96	0x3e00c845	0.12576397
97	0xbd84874a	-0.06471117
98	0x3de0feb2	0.10986079
99	0x3db52d2f	0.08846509
100	0xbd863eac	-0.065549225
101	0xbe6b46fe	-0.229763
102	0x3dea7938	0.11448902
103	0xbcd45dc4	-0.025923617
104	0x3e216f5c	0.15765136
105	0x3e88975b	0.26677975
106	0xbe296a2f	-0.16544412
107	0x3e4b2dd1	0.19841696
108	0xbe2a39b4	-0.16623574
109	0x3e82ff22	0.25585276
110	0xbe900e73	-0.28136024
111	0xbe864fb8	-0.26232696
112	0x3e81e680	0.2537117
113	0x3e7a5f46	0.24450406
114	0xbe645bbb	-0.22300617
115	0x3e487724	0.19576699
116	0xbe0f777e	-0.14010426
117	0x3ea5ab90	0.32357454
118	0x3dcf4bd3	0.10121884
119	0xbd944baf	-0.07240998
120	0x3e35f160	0.17767859
121	0x3e677c69	0.22606052
122	0x3dbce207	0.09222799
123	0x3e7ef104	0.24896628
124	0x3e6ea0e1	0.23303558
125	0x3e297243	0.16547494
126	0x3da9ee1e	0.082973704
127	0xbced810d	-0.0289922
128	0x3e5de868	0.21670687
129	0x3e4a4a02	0.19754794
130	0xbdf24878	-0.118302286
131	0xbe0128cf	-0.12613223
132	0xbe2d37c0	-0.16915798
133	0x3e027bf2	0.12742594
134	0xbe3cabc4	-0.18424898
135	0xbe5f8764	-0.21828991
136	0x3e5354ce	0.20637819
137	0xbe4d5247	-0.20050918
138	0xb7704f40	-1.4323567e-05
139	0x3e4ca205	0.1998368
140	0x3e96ce13	0.29454097
141	0x3e147aa6	0.14499912
142	0x3da3d93f	0.08000421
143	0xbda74d2d	-0.08169017
144	0x3e85a0bd	0.26099196
145	0xbe94c3ef	-0.29055735
146	0x3e4c49fa	0.19950095
147	0xbd899e42	-0.067196384
148	0xbe95a85c	-0.2923001
149	0x3e461d3c	0.1934709
150	0x3d60deaf	0.054899868
151	0x3e3a867d	0.18215366
152	0xbdbfd1b9	-0.09366173
153	0x3a1e8990	0.000604772
154	0xbe1c5f3e	-0.15270707
155	0xbd9266fb	-0.07148548
156	0x3dc089bb	0.0940127
157	0x3db8777c	0.09007165
158	0x3e205819	0.15658607
159	0x3e2b138e	0.16706678
160	0x3e3dc083	0.18530469
161	0x3e3f4087	0.18676959
162	0xbce40ce5	-0.02783818
163	0x3d330590	0.043706477
164	0x3d7bcde5	0.061475653
165	0x3da9ad1e	0.082849726
166	0x3e0bf699	0.13668288
167	0x3e734bc7	0.23759376
168	0x3d9d84fa	0.07691379
169	0x3e009cc3	0.125598
170	0x3aba9b92	0.0014237037
171	0xbd7b7e96	-0.06140002
172	0x3de63216	0.11240022
173	0x3e12a1d6	0.14319548
174	0x3e8c6e9a	0.27428132
175	0x3e2511e3	0.16120104
176	0xbd7c399f	-0.06157839
177	0x3d200124	0.039063588
178	0x3e607d14	0.21922714
179	0xba8a11d8	-0.0010533882
180	0xbbb62102	-0.005558134
181	0x3e02e12c	0.12781209
182	0x3e8311a0	0.25599384
183	0xbd5e9b31	-0.05434722
184	0x3e816ee9	0.2527993
185	0x3dc9dc1d	0.098564364
186	0x3e0461de	0.12927958
187	0x3cda039f	0.026613055
188	0x3d76a158	0.060212463
189	0x3d85750a	0.06516464
190	0x3db651be	0.0890231
191	0x3e4b3b32	0.198468
192	0x3e25f6c0	0.16207409
193	0x3dd2e0e3	0.102968
194	0x3e18cd77	0.14922129
195	0x3dad608a	0.08465679
196	0x3df694eb	0.120401226
197	0x3d9ac8d1	0.07557834
198	0x3e1b1ac4	0.15146929
199	0xbc916d95	-0.017752448

lstm.weight_hh_l0 f4 [200, 50]
0	0x3df6b935	0.12047044
1	0xbdc52a5e	-0.096272215
2	0x3d16d5eb	0.0368251
3	0x3d17969b	0.037008863
4	0xbdca4273	-0.098759554
5	0x3e348b0b	0.17631166
6	0x3ca9787b	0.020687332
7	0x3d9ccf60	0.07656741
8	0xbd9d51c3	-0.076816104
9	0xbdadfcf1	-0.0849551
10	0xbcc079df	-0.023495613
11	0xbd931ef3	-0.071836375
12	0x3ddd99ea	0.108203724
13	0x3e50e147	0.20398436
14	0xbe1001ce	-0.14063188
15	0xbd763bb8	-0.060115546
16	0xbda5c489	-0.08094127
17	0x3db48568	0.08814508
18	0xbd9d71e6	-0.0768774
19	0x3cafa58f	0.02144125
20	0x3bdf13e4	0.006807791
21	0x3da16372	0.07880296
22	0x3dc3d1b5	0.09561483
23	0x3d5627bc	0.052283987
24	0xbbf6b565	-0.007528948
25	0xbd94c4fa	-0.07264133
26	0xbcd9005b	-0.026489427
27	0xbde3ae46	-0.111172244
28	0xbd83960b	-0.06425103
29	0x3d063d8a	0.032773532
30	0xbe118db9	-0.14214219
31	0xbe010772	-0.12600496
32	0xbe103e36	-0.14086232
33	0x3da65bf7	0.0812301
34	0xbe09ba25	-0.13449915
35	0x3d084933	0.033272933
36	0xbd8255bd	-0.063640095
37	0xbddfaf66	-0.109221265
38	0xbdec14f3	-0.11527433
39	0x3dd05c74	0.10173884
40	0x3d37d5bd	0.04488157
41	0x3c77f389	0.015133747
42	0x3c988fc4	0.01862324
43	0x3c9ab059	0.018882917
44	0x3d189766	0.03725376
45	0xbd618774	-0.05506082
46	0xbc78ca79	-0.015184992
47	0xbd27f776	-0.04100748
48	0xbcbf73ec	-0.023370706
49	0x3e286d9c	0.16448063
50	0x3d28fb4f	0.04125529
51	0x3e06cc33	0.13163833
52	0x3dd94eb4	0.106107146
53	0x3df288f7	0.1184253
54	0xbe116a63	-0.1420074
55	0xbdac4942	-0.0841241
56	0x3d908319	0.07056255
57	0x3d5ed48a	0.05440191
58	0xbde2b8ec	-0.11070427
59	0x3e1e669e	0.15468833
60	0xbdb1bd55	-0.0867869
61	0xbe116c25	-0.1420141
62	0xbd4d194a	-0.050072946
63	0xbe023b1c	-0.12717861
64	0x3c815a47	0.015790118
65	0x3de3aade	0.11116575
66	0xbe32b708	-0.17452633
67	0x3e293dad	0.16527434
68	0x3d564db1	0.052320186
69	0xbd218cbf	-0.039440867
70	0x3e11101d	0.14166303
71	0x3c7caf21	0.015422613
72	0xbd2cbf52	-0.042174645
73	0x3dc053a4	0.09390953
74	0xbcff42d7	-0.031159801
75	0x3db2a518	0.087228954
76	0xbe63ee0b	-0.22258775
77	0x3e725075	0.23663504
78	0x3df837fd	0.12120054
79	0x3ce637d4	0.028102793
80	0x3e454eb8	0.1926831
81	0xbe0712b9	-0.13190736
82	0xbb2def3f	-0.0026540307
83	0xbda5745b	-0.08078834
84	0xbe2fb030	-0.17157054
85	0xbcbc134b	-0.022958418
86	0xbc7967e0	-0.01522252
87	0xbd2837cd	-0.04106884
88	0x3d74d70f	0.05977541
89	0x3db44252	0.08801712
90	0x3c64cfde	0.013965575
91	0x3d046bbb	0.032329302
92	0x3db5d863	0.08879163
93	0x3d92fb3f	0.07176828
94	0x3d6f3508	0.058400184
95	0x3dbcee04	0.092250854
96	0x3decf7e6	0.115707204
97	0x3e473973	0.19455509
98	0xbc857ba3	-0.016294306
99	0x3d3b3de1	0.04571331
100	0xbd0050f1	-0.03132719
101	0xbc87dfbe	-0.01658618
102	0xbde38390	-0.11109078
103	0xbdeff7e1	-0.11717201
104	0x3db37852	0.08763184
105	0x3d54803e	0.051880114
106	0x3df0cdc9	0.117580004
107	0xbe0ac94f	-0.13553356
108	0xbd5deb4d	-0.05417948
109	0xbcc2a561	-0.0237605
110	0x3d087f94	0.033324793
111	0xbd6226dd	-0.055212844
112	0xbdeb9958	-0.115038574
113	0x3dacc886	0.08436684
114	0x3d8a4350	0.0675112
115	0xbde17a7f	-0.110096924
116	0x3e09643c	0.13417143
117	0xbde90b9b	-0.11379167
118	0xbdf6f3a9	-0.12058193
119	0xbc9d19f4	-0.019177414
120	0x3d7ed094	0.062210634
121	0xba6aef78	-0.0008962075
122	0xbe17cced	-0.14824267
123	0xbe0e8c12	-0.1392062
124	0x3d1021cd	0.035188485
125	0x3c3ca72c	0.011514466
126	0xbd7e2689	-0.06204847
127	0x3da36aa2	0.07979323
128	0xbd464f26	-0.048415326
129	0x3d79befc	0.060973153
130	0x3d8f944e	0.07010709
131	0x3e0a2e1f	0.13494156
132	0xbbb487e6	-0.0055093644
133	0xbcdf3a70	-0.027249545
134	0xbd53512f	-0.051591095
135	0xbdd12b6b	-0.102133594
136	0x3d0b95a0	0.03407824
137	0x3e034c8f	0.12822174
138	0x3cafd2ca	0.021462817
139	0x3d2e4b11	0.042552058
140	0xbe0d56ce	-0.13802645
141	0x3dcdf465	0.1005638
142	0xbde23bdc	-0.110465735
143	0xbdfab1c5	-0.12240938
144	0x3dfb14cc	0.12259826
145	0xbdc4e341	-0.09613658
146	0x3ddb2814	0.10701004
147	0x3c065082	0.0081979055
148	0xbd2771da	-0.04088006
149	0xbdd11ace	-0.10210191
150	0xbe1f2ed6	-0.1554521
151	0x3d278002	0.040893562
152	0xbe223eff	-0.15844344
153	0xbc119890	-0.008886471
154	0xbdc6c489	-0.09705455
155	0x3e077748	0.13229096
156	0xbde59d44	-0.11211637
157	0xbdd8e6e6	-0.105909154
158	0x3d7945c0	0.060857534
159	0x3dc5bcfe	0.09655188
160	0xbda4041b	-0.080085956
161	0x3cff8b98	0.031194493
162	0xbc281e75	-0.010261168
163	0x3d0cbf9e	0.034362428
164	0xbd887149	-0.066622324
165	0xbdf20717	-0.118177585
166	0x3c7e97ef	0.0155391535
167	0xbcf72877	-0.030170662
168	0x3ddc1887	0.10746866
169	0xbd8d5777	-0.06901448
170	0xbd33584e	-0.043785386
171	0x3c26fbf4	0.010191906
172	0xbe02ce0d	-0.12773915
173	0xbdbc5996	-0.09196775
174	0x3ce3a27e	0.027787443
175	0x3d8cf697	0.06882971
176	0x3da79511	0.08182729
177	0xbe1b2036	-0.15149006
178	0x3c352dc4	0.011058275
179	0x3dce896c	0.10084805
180	0x3d8baa36	0.068195745
181	0x3dae547f	0.0851221
182	0x3dc2a92d	0.09504924
183	0x3dd0b975	0.10191623
184	0xbc837846	-0.016048562
185	0x3b8b758e	0.004255957
186	0xbd342152	-0.04397709
187	0x3de77536	0.11301653
188	0xbdf69f3e	-0.12042092
189	0x3df71999	0.12065429
190	0xbd753535	-0.059865195
191	0x3dae88fe	0.08522223
192	0xbde78d76	-0.113062784
193	0x3d7fcf73	0.0624537
194	0xbb95361b	-0.004553569
195	0xbd04fd83	-0.03246833
196	0x3da68f32	0.08132781
197	0xbdeeebac	-0.116660446
198	0x3d29f4ea	0.041493334
199	0x3dc2f6d7	0.09519737
200	0x3cf31d64	0.0296771
201	0xbe0e0d65	-0.13872297
202	0xbcb5257f	-0.022112606
203	0xbe16c669	-0.14724125
204	0xbd09f6e5	-0.033682723
205	0x3d96b98d	0.0735961
206	0x3dc96aa2	0.09834792
207	0xbc1bf06d	-0.009517771
208	0xbdba9dc6	-0.09112124
209	0xbdaa6546	-0.083200976
210	0xbccce8ec	-0.02501341
211	0x3d5d5be6	0.05404272
212	0xbc633b77	-0.013869158
213	0x3d7704be	0.060307257
214	0x3c9fb8fb	0.019497385
215	0x3d8cde81	0.06878377
216	0x3e2158c0	0.15756512
217	0xbe14e53a	-0.14540568
218	0xbbe56039	-0.006999996
219	0x3e125887	0.14291583
220	0xbd8aedbd	-0.06783626
221	0xbd1b8c84	-0.037975803
222	0xbca09055	-0.019600073
223	0xbc23e41a	-0.010003114
224	0xbe164e5f	-0.14678334
225	0x3bc557a2	0.0060224095
226	0xbcc74c51	-0.024328383
227	0x3d694145	0.05694701
228	0xbe0ba545	-0.13637264
229	0xbe2fbf26	-0.17162761
230	0x3e01661a	0.12636605
231	0x3e285033	0.16436844
232	0x3d97f8a4	0.07420471
233	0xbd3fef73	-0.046859216
234	0xbdb92943	-0.09041073
235	0xbd1abc67	-0.03777733
236	0x3e07e90a	0.13272491
237	0xbd2d8906	-0.042367004
238	0xbda7d423	-0.08194759
239	0xbe2ce360	-0.16883612
240	0xbd17d7b8	-0.03707096
241	0x3d4832c2	0.04887653
242	0xbdd38a29	-0.10329086
243	0x3d033aee	0.03203862
244	0xbe20f7e4	-0.15719563
245	0xbd51d2f5	-0.051226575
246	0x3db97cd9	0.09057016
247	0x3d8d1088	0.06887919
248	0x3d3d5418	0.046222776
249	0x3d87b8ab	0.066270195
250	0x3d737d2e	0.059445553
251	0x3df71ee3	0.12066438
252	0x3d38daca	0.04513053
253	0x3d6f64f8	0.0584459
254	0xbd9cc0f3	-0.0765399
255	0xbdb1a1ac	-0.086734146

lstm.bias_ih_l0 f4 [200]
0	0x3d826fc2	0.06368972
1	0x3e2c6430	0.16835093
2	0x3dd6b54f	0.104838006
3	0x3df83a76	0.121205255
4	0x3df50ad9	0.1196496
5	0x3e844576	0.25834244
6	0x3d827871	0.063706286
7	0xbdceaa3f	-0.100910656
8	0x3d00409e	0.031311624
9	0x3e3bf09b	0.18353502
10	0x3e11c009	0.14233412
11	0x3e74d4b9	0.23909272
12	0x3a9e3da0	0.0012072809
13	0x3e6de6f6	0.23232636
14	0x3d7f57ed	0.062339712
15	0xbd3d6f55	-0.046248753
16	0x3c9597e5	0.018260906
17	0x3e71f197	0.23627315
18	0x3dcfc85d	0.10145638
19	0xbe1706d0	-0.14748693
20	0xbd74d4de	-0.05977332
21	0x3db506c5	0.08839182
22	0xbdd49e84	-0.10381797
23	0xbd19d573	-0.037557077
24	0x3e9dd910	0.30829668
25	0xbda00dc5	-0.07815126
26	0xbd2196cb	-0.039450448
27	0xba2fad66	-0.00067015586
28	0x3db30981	0.08742047
29	0x3e0feabb	0.14054386
30	0x3cc6cea5	0.024268458
31	0xbcb5c5cb	-0.022189042
32	0x3df4dec4	0.11956552
33	0xbd968e18	-0.07351321
34	0xbd321993	-0.04348142
35	0xbdc3189f	-0.095261805
36	0xbda4fac4	-0.08055642
37	0xbd28b099	-0.04118404
38	0xbe01463d	-0.1262445
39	0x3e26cf3d	0.16289993
40	0x3e4f00f4	0.20215207
41	0x3d5d7000	0.05406189
42	0x3d619b40	0.0550797
43	0x3dca2436	0.09870188
44	0xbd98a92b	-0.07454141
45	0xbc1e0438	-0.0096445605
46	0xbca8d771	-0.020610543
47	0x3d256842	0.04038263
48	0xbd7a0b3c	-0.06104587
49	0xbcf9e9b7	-0.030506952
50	0x3d887bbb	0.06664225
51	0x3d8b09e9	0.067889996
52	0xbc04e730	-0.00811176
53	0x3da17edc	0.07885525
54	0xbe0f0002	-0.13964847
55	0x3ca5fcf8	0.020262226
56	0x3db441b7	0.088015966
57	0xbdd6ad76	-0.10482304
58	0xbce69fc6	-0.028152358
59	0xbd4a9888	-0.04946187
60	0x3e029461	0.12751915
61	0xbd5cc55a	-0.053899147
62	0x3c31aa0b	0.010843764
63	0xbcd6b505	-0.026209364
64	0x3d62b6de	0.055350177
65	0x3d842f0d	0.06454287
66	0xbde52f96	-0.11190717
67	0xbe201636	-0.15633473
68	0x3d1249e9	0.035715017
69	0xbe18ba43	-0.14914803
70	0x3cebeeca	0.028800387
71	0xba34f352	-0.00069027126
72	0xbc867725	-0.016414234
73	0x3d33497c	0.043771252
74	0xbdeca3d0	-0.11554682
75	0xbd4b4920	-0.049630284
76	0x3e0412b3	0.12897758
77	0xbdcfd25f	-0.10147547
78	0x3db97a14	0.09056488
79	0x3da270ad	0.079316474
80	0xbe06cfc3	-0.13165192
81	0xbdf1901a	-0.11795063
82	0xbdf7de5c	-0.121029586
83	0x3db6826f	0.08911597
84	0x3cd46c1f	0.025930462
85	0xbd002cd0	-0.031292737
86	0xbd21d3b4	-0.039508536
87	0xbd56a80e	-0.052406363
88	0xbda79677	-0.08182996
89	0xbd867c6f	-0.065667026
90	0xbd0ef5a2	-0.034902222
91	0xbdc540d2	-0.09631504
92	0xbc4d5f02	-0.012534859
93	0x3d3dbf5f	0.046325084
94	0xbbf2fa92	-0.007415124
95	0xbc8e7d7d	-0.017393822
96	0xbcd73c8e	-0.026273992
97	0xbdb88940	-0.09010553
98	0xbd39a260	-0.04532087
99	0x3e0f0d65	0.13969953
100	0x3de3cdb5	0.1112322
101	0x3d95d83d	0.07316635
102	0x3d737577	0.059438195
103	0xbd4e52b5	-0.050371844
104	0x3b943f2e	0.004524133
105	0x3d3f4778	0.046699017
106	0x3dca46bb	0.09876772
107	0x3d67b79d	0.05657159
108	0x3cdce712	0.026965652
109	0x3c94d1d6	0.018166464
110	0x3d8b97b0	0.068160415
111	0x3cca22b5	0.024674753
112	0xbd9410db	-0.072297774
113	0x3da1a1a8	0.078921616
114	0x3dd37751	0.10325492
115	0xbcc08473	-0.023500657
116	0xbcd98856	-0.026554268
117	0xbddfab87	-0.10921388
118	0xba88368f	-0.0010392236
119	0xbd7e895f	-0.062142726
120	0x3de8048e	0.11328994
121	0xbd7e2055	-0.062042553
122	0xbc427046	-0.011867588
123	0xbd4b67a0	-0.04965937
124	0xbd4036cc	-0.04692726
125	0xbd254388	-0.040347606
126	0xbd18fe1f	-0.037351724
127	0x3e005ff3	0.12536602
128	0x3c12defd	0.008964297
129	0x3d8fe350	0.07025778
130	0x3d1bc352	0.03802807
131	0xbdb972e2	-0.09055115
132	0xbdd72194	-0.105044514
133	0xbd4e4736	-0.05036088
134	0x3e075661	0.13216545
135	0xbdebd8e0	-0.11515975
136	0x3dc9d9bd	0.098559834
137	0xbd563bdb	-0.052303176
138	0xbda0df40	-0.078550816
139	0x3c9ae55e	0.018908199
140	0xbcb6a7dc	-0.022296838
141	0x3bb40f10	0.0054949597
142	0x3db32e8e	0.08749114
143	0x3d5f71de	0.05455195
144	0x3cff0cd0	0.03113404
145	0x3cd371b9	0.025811063
146	0xbbdf21fa	-0.0068094702
147	0x3d94f7c0	0.07273817
148	0xbb0715cc	-0.0020612357
149	0xbbba0e51	-0.005677976
150	0x3e0e0783	0.13870053
151	0x3e83673c	0.256647
152	0x3dcb7bb0	0.09935701
153	0x3d28f7ba	0.041251875
154	0x3e011598	0.12605894
155	0xbbf020ef	-0.0073281447
156	0xbdf0d7ff	-0.11759948
157	0xbd5cfcc9	-0.053952012
158	0x3d9a4b60	0.07533908
159	0x3e1edd65	0.15514143
160	0x3e4c1de4	0.19933277
161	0x3e0bb183	0.13641934
162	0xbb615f65	-0.0034389135
163	0x3dfec2fb	0.12439533
164	0x3d3a8193	0.045533728
165	0x3dd5f06e	0.10446249
166	0x3d2db926	0.0424129
167	0x3e465f21	0.19372226
168	0xbd4d9103	-0.050187122
169	0x3c85210e	0.016251113
170	0x3dbb1f4b	0.09136828
171	0x3e08f86f	0.1337602
172	0xbe09ccaa	-0.1345698
173	0x3e40019e	0.18750617
174	0x3e64f070	0.22357345
175	0x3ad9cdf1	0.0016617161
176	0x3d84b5c4	0.064799815
177	0xbcbdb119	-0.023155736
178	0x3dd4fc96	0.103997394
179	0x3ca007cd	0.01953497
180	0xbe0bcd88	-0.13652623
181	0x3e0db213	0.13837461
182	0x3c7bff63	0.015380713
183	0x3cee9744	0.029124863
184	0x3e412e94	0.18865424
185	0x3dfc6302	0.12323572
186	0x3dde3661	0.10850216
187	0xbcbbfef8	-0.022948727
188	0xbe0e2dd0	-0.13884664
189	0x3e40baf9	0.18821324
190	0x3e11a357	0.14222465
191	0xbdc2018f	-0.094729535
192	0xbd579ee1	-0.052641753
193	0x3d66da4c	0.056360528
194	0x3e30e7ef	0.17275976
195	0x3db27991	0.08714593
196	0x3e0cda68	0.1375519
197	0xbc818eb7	-0.015815122
198	0x3ca9dc90	0.020735055
199	0x3c55fa94	0.013060231

lstm.bias_hh_l0 f4 [200]
0	0xbdac6237	-0.084171705
1	0x3e14598d	0.14487286
2	0xbdc31f04	-0.095274
3	0xbd57677c	-0.052588925
4	0x3dac2b2f	0.08406674
5	0x3e83d431	0.25747827
6	0xbdd1cfbd	-0.10244701
7	0xbdcab0f8	-0.09897035
8	0x3df3f9b6	0.11912863
9	0x3bbae325	0.0057033473
10	0x3d61adda	0.05509744
11	0x3ea6dfd4	0.32592642
12	0xbd659cbf	-0.056057688
13	0x3e21cf0c	0.15801638
14	0x3d3cb389	0.046069656
15	0xbc69a2ea	-0.014260033
16	0xbd389e97	-0.045073118
17	0x3e938b2e	0.28817123
18	0x3cd25282	0.025674108
19	0x3d8bde96	0.06829564
20	0xbb80677f	-0.0039185877
21	0xbd351b95	-0.044215757
22	0xbd01f8aa	-0.031731285
23	0x3d64f05a	0.05589328
24	0x3eb7243d	0.35769835
25	0x3da795d2	0.08182873
26	0x3cbac35f	0.022798238
27	0xbe0ba221	-0.13636066
28	0x3d3f25f9	0.046667073
29	0x3888ff13	6.5324966e-05
30	0xbb8f6bd6	-0.0043768687
31	0x3da36d63	0.07979848
32	0xbd9906c6	-0.07471995
33	0x3d99b6dd	0.075055815
34	0x3e5a8db6	0.21343121
35	0x3c03f1b7	0.008053235
36	0x3d540de5	0.051771063
37	0xbda4094b	-0.08009585
38	0xbcfca360	-0.030839622
39	0x3dedb178	0.11606115
40	0x3c44b648	0.01200635
41	0xbbc062a4	-0.005871134
42	0xbb8ecb45	-0.0043577277
43	0x3deacfe4	0.11465433
44	0xbc7d57be	-0.015462814
45	0x3c0696c1	0.0082146535
46	0xbd111798	-0.03542289
47	0x3dd61135	0.10452501
48	0x3d841ef1	0.06451214
49	0x3c575813	0.013143557
50	0x3d54ac66	0.051922224
51	0x3c8952f3	0.016763186
52	0x3df89085	0.1213694
53	0xbe05ebcb	-0.13078229
54	0xbe36a3bd	-0.17835899
55	0x3dc1aba3	0.09456565
56	0xbdec3329	-0.115331955
57	0x3d11ae9d	0.035566915
58	0xbdbd9375	-0.09256641
59	0x3e035117	0.12823902
60	0xbdf73220	-0.120701075
61	0xbdf75aca	-0.120778635
62	0x3dc73bf7	0.09728234
63	0x3db09ff2	0.08624257
64	0x3d2e4ca9	0.042553578
65	0x3e04a995	0.12955315
66	0x3d89ad5b	0.06722518
67	0x3b2f1f78	0.0026721638
68	0xbdc3f08f	-0.09567367
69	0xbb69a2f5	-0.0035650108
70	0x3d3adf35	0.045623023
71	0x3e0c6dd3	0.1371377
72	0xbe171508	-0.14754117
73	0xbd9141d4	-0.07092634
74	0xbdfbaa86	-0.12288384
75	0x3d25952f	0.040425476
76	0xbe0d58a9	-0.13803352
77	0xbd1ea737	-0.038733687
78	0x3d714005	0.058898944
79	0x3e08a0c2	0.13342574
80	0xbdc8a6d9	-0.09797449
81	0x3daedd27	0.08538275
82	0xbdd00183	-0.10156538
83	0xbda8ed1c	-0.0824835
84	0xbe24f4e4	-0.16109043
85	0x3d9ca4cd	0.07648621
86	0xbcb8ed2c	-0.02257403
87	0xbe02fe83	-0.12792401
88	0x3d898f12	0.067167416
89	0x3e1f6793	0.15566854
90	0xbd2e6f07	-0.042586353
91	0x3d4e6f7f	0.0503993
92	0x3d8eb6a5	0.069684304
93	0x3d79ac6d	0.060955454
94	0x3abe15ab	0.0014502307
95	0xbd5f061e	-0.054449193
96	0xbdf61450	-0.12015593
97	0xbdfee17d	-0.12445352
98	0x3e09011d	0.13379331
99	0xbde44077	-0.11145108
100	0x3a57915c	0.00082232594
101	0xbdb916dc	-0.09037563
102	0xbdebf149	-0.11520631
103	0x3dd51c66	0.10405807
104	0xbd62944a	-0.0553172
105	0xbdb2c92c	-0.08729777
106	0xbd0b5ba4	-0.034022942
107	0xbcdc37c7	-0.026882065
108	0xbd370303	-0.044680607
109	0xbc2f44e5	-0.010697578
110	0xbd10e065	-0.03537025
111	0xbc6be7d1	-0.014398531
112	0x39b1736a	0.0003384606
113	0xbde7f650	-0.11326277
114	0xbde9624f	-0.11395704
115	0x3da4d4e9	0.08048422
116	0xbdd3b894	-0.1033794
117	0x3db84956	0.08998363
118	0x3d19f6de	0.037588947
119	0xbdaa4868	-0.08314592
120	0xbe0f7cf1	-0.14012505
121	0xbcd29571	-0.025706025
122	0x3d7bf8fe	0.061516754
123	0x3d14e584	0.036351696
124	0x3c5a4e6b	0.01332436
125	0x3dffc714	0.12489143
126	0xbd448257	-0.047975864
127	0x3dd214ad	0.1025785
128	0x3bee636b	0.007275035
129	0xbd7eb3fb	-0.06218336
130	0x3d8d07af	0.06886231
131	0x3da406ad	0.08009086
132	0xbdcdfc09	-0.100578375
133	0xbdf0856a	-0.11744197
134	0xbe0e4d9b	-0.13896792
135	0x3d6aff5d	0.05737244
136	0xbdc681be	-0.09692715
137	0x3b98303d	0.0046444223
138	0xbb015bd6	-0.0019738576
139	0xbcb0836c	-0.021547042
140	0xbc83a1b1	-0.016068311
141	0x3c8cfe82	0.017211203
142	0x3d4964fd	0.049168576
143	0x3e0c699a	0.13712159
144	0x3c4eb3bb	0.012616093
145	0xbc5cce3e	-0.013476906
146	0x3d0bdbbc	0.034145102
147	0x3d767c12	0.060176916
148	0xbc8b8445	-0.017030844
149	0x3c5b3cc8	0.013381191
150	0x3e0065be	0.12538812
151	0x3d797c90	0.060909808
152	0xbcde2f9d	-0.027122313
153	0x3dee9c77	0.11650937
154	0xbe060015	-0.13085969
155	0x3e0daf92	0.13836506
156	0x3df0dfe5	0.117614545
157	0x3e0ac724	0.13552529
158	0x3c0652c8	0.0081984475
159	0x3db086b1	0.0861944
160	0x3d7454b3	0.059651088
161	0x3deb4495	0.1148769
162	0xbd596374	-0.05307336
163	0x3e87ec65	0.26547542
164	0x3d943cec	0.072381824
165	0x3d53fcca	0.05175475
166	0x3e0ba2cc	0.13636321
167	0x3e2d255c	0.16908783
168	0xbc2fb506	-0.010724312
169	0x3d43c9e8	0.047799975
170	0x3e1a4ecb	0.1506912
171	0x3dd801c1	0.105472095
172	0x3dd46baa	0.10372098
173	0xbc798ccf	-0.015231325
174	0x3e848539	0.2588289
175	0xbd16b5f5	-0.03679462
176	0x3d04f4fa	0.03246019
177	0x3d10c61d	0.035345186
178	0xbdee13f9	-0.11624903
179	0xbd250a4b	-0.04029302
180	0x3d4ba575	0.04971834
181	0xbc915cc2	-0.017744426
182	0x3c8c4835	0.017124275
183	0xbd05be49	-0.032652173
184	0x3de60a01	0.11232377
185	0x3d8f01c7	0.06982761
186	0x3d88495e	0.06654619
187	0xbd5e4af4	-0.0542707
188	0xbd36a6f0	-0.044592798
189	0x3e54e44c	0.20790213
190	0x3dee6c04	0.11641696
191	0x3e0cf1f6	0.13764176
192	0x3d08e328	0.033419758
193	0x3d8e8214	0.06958404
194	0x3e0ed6fb	0.13949196
195	0xbcc46d74	-0.023977973
196	0x3e1885af	0.14894746
197	0xbd41d467	-0.047321703
198	0x3dcd9cb7	0.100396566
199	0x3d633487	0.055470016

lstm.weight_ih_l1 f4 [200, 50]
0	0x3dafb7cd	0.08579979
1	0xbbb51eaf	-0.0055273394
2	0x3dcd5279	0.10025496
3	0x3c192f35	0.009349634
4	0xbe07c0e6	-0.13257179
5	0x3e62703c	0.22113127
6	0xbdc20d6f	-0.094752185
7	0x3e107673	0.14107685
8	0xbd12f0cb	-0.03587417
9	0x3dbf0f8c	0.09329137
10	0xbd386d8b	-0.045026343
11	0x3d568334	0.05237122
12	0x3d14a64c	0.036291406
13	0xbd9ce6c2	-0.07661201
14	0xbd3bc59e	-0.04584276
15	0x3e36e575	0.17860968
16	0x3cd32b99	0.025777625
17	0x3dcd253a	0.10016866
18	0x3daefccc	0.08544311
19	0xbe08cd9c	-0.13359684
20	0x3e11d981	0.14243127
21	0x3de5788f	0.11204635
22	0x3e168386	0.1469861
23	0xbd7d0b61	-0.06177843
24	0x3d887b7b	0.06664177
25	0xbd854a11	-0.06508268
26	0xbb196843	-0.0023408092
27	0xbcdecca1	-0.027197184
28	0x3e102b71	0.14079072
29	0x3e2b0932	0.16702726
30	0xbdb9fcda	-0.09081431
31	0x3e095dc7	0.1341468
32	0xbcbe75b8	-0.023249492
33	0x3cb6e54a	0.02232613
34	0xbdc242ba	-0.09485383
35	0x3dc6f857	0.09715336
36	0x3dd1ef90	0.10250771
37	0xbcb9f471	-0.022699567
38	0xbc2e308b	-0.010631691
39	0x3df2edae	0.1186174
40	0xbc703e94	-0.014663357
41	0xbcb1ea67	-0.021718217
42	0xbd9aab3c	-0.075521916
43	0xbd7b644b	-0.061374944
44	0x3b3618de	0.0027785818
45	0xbe2581a0	-0.1616273
46	0x3d15f2f3	0.036608648
47	0x3b8ccdbb	0.004296986
48	0xbddd59ca	-0.108081415
49	0x3e0e5060	0.13897848
50	0x394bd574	0.00019439106
51	0xbcf9b849	-0.030483382
52	0x3d60b123	0.05485643
53	0xbe019ecc	-0.12658232
54	0xbd42772b	-0.04747693
55	0x3e06e0da	0.13171712
56	0xbd2a792d	-0.04161947
57	0xbd8c2093	-0.068421505
58	0x3e3d44e6	0.18483314
59	0xbd175756	-0.036948524
60	0xbd499d70	-0.04922241
61	0xbdfbe9f4	-0.123004824
62	0x3d0d298c	0.03446345
63	0xbdd99158	-0.10623425
64	0x3dab3430	0.08359563
65	0x3d58d528	0.052937657
66	0x3d92eecd	0.07174454
67	0xbd9bca1f	-0.07606911
68	0xbcb40fa5	-0.021980116
69	0xbd749a41	-0.05971742
70	0xbdccb160	-0.09994769
71	0x3cf68e96	0.030097287
72	0xbe16a2fd	-0.14710613
73	0xbd16abe1	-0.03678501
74	0x3e02fc32	0.12791517
75	0xbe1aafc4	-0.15106112
76	0xbdc51cd1	-0.09624637
77	0xbdeb6aa9	-0.11494953
78	0xbd1c16d6	-0.038107716
79	0xbdf61cc8	-0.12017208
80	0xbda0d430	-0.078529716
81	0x3d020071	0.031738702
82	0xbcd4a97e	-0.025959726
83	0x3ddd78a8	0.10814029
84	0x3d9d54cb	0.076821886
85	0xbd9b4af3	-0.07582655
86	0x3db6a843	0.08918812
87	0xbaed5d21	-0.001810942
88	0xbdc7ad36	-0.09749834
89	0x3da1f029	0.07907135
90	0x3dccbfe2	0.09997536
91	0xbd8a68f1	-0.06758297
92	0x3d246281	0.040133003
93	0x3c7c81cc	0.015411805
94	0x3e0a2789	0.13491644
95	0xbd88561f	-0.06657051
96	0x3e059010	0.13043237
97	0xbddc90c0	-0.10769796
98	0x3d6051c7	0.05476549
99	0xbcba5152	-0.022743855
100	0xbd9437a7	-0.07237177
101	0xbda77699	-0.081769176
102	0x3e15f1c1	0.14643003
103	0x3d36c7de	0.044624202
104	0xbd082f04	-0.033247963
105	0x3c64679c	0.013940718
106	0x3dd81fc7	0.10552936
107	0x3e3d907c	0.18512148
108	0x3bfe612b	0.007763048
109	0xbd596766	-0.053077124
110	0xbd05294e	-0.032510094
111	0xbe4ad3eb	-0.19807403
112	0x3db871a3	0.090060495
113	0x3e1205b8	0.14259994
114	0xbdb4444f	-0.08802091
115	0xbc6528e8	-0.013986804
116	0xbcc30d0e	-0.023809936
117	0xbd14a7ed	-0.03629296
118	0x3df958f0	0.121751666
119	0x3db39913	0.08769431
120	0xbd286404	-0.041111007
121	0xbc4c92b5	-0.01248615
122	0x3c67690a	0.014124164
123	0xbce2cc77	-0.027685387
124	0xbd802e6b	-0.062588535
125	0xbd4f3c00	-0.05059433
126	0x3dba098b	0.090838514
127	0xbd8ce735	-0.06880037
128	0x3df6193b	0.12016531
129	0x3e5e7e7d	0.21727939
130	0x3de7ba1b	0.11314794
131	0xbb88b0d4	-0.00417147
132	0xbe0b8aea	-0.1362721
133	0x3cbfccf9	0.023413168
134	0xbe964ddd	-0.2935628
135	0x3d978814	0.07399002
136	0x3e491224	0.19635826
137	0x3d2e787d	0.042595375
138	0xbdae8b8b	-0.085227095
139	0x3e3b5149	0.18292727
140	0x3df07ccf	0.11742555
141	0x3d2d7486	0.042347454
142	0xbd0ea6cf	-0.03482705
143	0xbd660a24	-0.056162015
144	0x3db02a3a	0.08601804
145	0xbe2937d0	-0.16525197
146	0xbd3198a1	-0.04335845
147	0xbca5a762	-0.020221416
148	0x3ca46aed	0.020070517
149	0x3e1e8434	0.15480119
150	0x3c9a653d	0.018847102
151	0xbe2ce480	-0.16884041
152	0x3de30d6e	0.11086546
153	0xbd1ff953	-0.039056133
154	0x3d330142	0.04370237
155	0x3e494374	0.19654638
156	0x3cfd4c1a	0.030920077
157	0x3dee3812	0.11631788
158	0xbdc17ac5	-0.094472446
159	0x3c3d2d35	0.011546423
160	0xbe2d3887	-0.16916095
161	0xbe097064	-0.1342178
162	0xbd5c0a6c	-0.053720877
163	0xba642510	-0.00087030325
164	0xbdf89d54	-0.12139383
165	0x3d3f86a9	0.04675928
166	0x3d70173e	0.058615915
167	0xbd1f575e	-0.03890168
168	0x3e1af824	0.1513372
169	0xbe0ce481	-0.13759042
170	0x3d4865b7	0.048925128
171	0xbdb825e0	-0.08991599
172	0x3dde2e40	0.10848665
173	0x3e530694	0.20607978
174	0x3e81fc20	0.2538767
175	0x3d2a5acf	0.041590508
176	0xbde9be55	-0.11413256
177	0xbd4e87bc	-0.050422415
178	0xbd4650a7	-0.04841676
179	0x3e67e063	0.2264419
180	0xbc54edf8	-0.012996189
181	0xbe1f183e	-0.15536591
182	0x3d82824b	0.06372508
183	0xbe0bc9e6	-0.13651237
184	0xbbdb40c6	-0.006691071
185	0xbca0f6d9	-0.019648956
186	0x3e226110	0.15857339
187	0xbdba3dde	-0.090938315
188	0xbd616536	-0.055028163
189	0x3e63e94e	0.22256967
190	0x3dd4d91d	0.103929736
191	0xbda20762	-0.079115644
192	0x3b4a6f92	0.0030889255
193	0xbd1ab0f4	-0.037766412
194	0x3dd9d0bb	0.10635515
195	0xbd616d64	-0.055035964
196	0x3e0ddadc	0.1385302
197	0x3d06063c	0.03272079
198	0xbbd56828	-0.0065126605
199	0x3e2b1a59	0.1670927
200	0x3c889503	0.016672617
201	0xbd51a29d	-0.05118047
202	0x3dd35793	0.10319438
203	0x3e1630b8	0.14667022
204	0x3d8ae15f	0.067812674
205	0x3d1cebed	0.038310934
206	0x3c2ba306	0.01047588
207	0xbd0987e4	-0.03357686
208	0xbe33b679	-0.17550077
209	0x3e265d80	0.16246605
210	0xbe170047	-0.147462
211	0xbe7fe0e4	-0.24988133
212	0xbdc2ff9c	-0.0952141
213	0x3e0122ba	0.12610903
214	0xbd5c38cb	-0.0537651
215	0xbbc2f624	-0.0059497524
216	0x3d6fe5b0	0.058568656
217	0x3e4fdd8d	0.20299359
218	0xbd9f15a3	-0.07767799
219	0xbdeb031f	-0.11475205
220	0x3e58c501	0.21168901
221	0x3d8fcb92	0.0702125
222	0x3d9b6a23	0.07588603
223	0x3b38fe87	0.0028227882
224	0x3a1654da	0.000573469
225	0xbcd6c09a	-0.026214886
226	0xbd28c7f1	-0.041206304
227	0xbcf0be70	-0.029387683
228	0x3e15962f	0.14608072
229	0xbce7510c	-0.028236888
230	0xbba33765	-0.004980969
231	0x3c34b061	0.01102838
232	0x3d489ac7	0.048975732
233	0x3e05e9bf	0.13077448
234	0xbd14cea3	-0.036329877
235	0xbdb27090	-0.08712876
236	0xbcbb58f9	-0.022869574
237	0xbdbc83c2	-0.09204818
238	0xbca64bc4	-0.0202998
239	0x3e26afc5	0.16277988
240	0x3df7214b	0.12066897
241	0xbd6db25f	-0.058031436
242	0x3e0d6b2f	0.13810419
243	0x3dca0305	0.09863857
244	0xbd37f43b	-0.04491065
245	0xbe59d573	-0.2127283
246	0x3d90e19c	0.070742816
247	0xbd901be9	-0.070365734
248	0xbe099279	-0.13434781
249	0x3d20e3af	0.039279636
250	0x3dfacc68	0.12246019
251	0xbc9fc32a	-0.019502241
252	0x3de068d3	0.10957494
253	0x3cc48b38	0.023992166
254	0x3dc8010c	0.09765825
255	0x3e1e45f3	0.15456371

lstm.weight_hh_l1 f4 [200, 50]
0	0x3d03269b	0.03201924
1	0x3de956ea	0.11393531
2	0xbd8556c2	-0.06510688
3	0x3e0a0231	0.13477398
4	0x3db3e12f	0.08783185
5	0x3db3a82b	0.0877231
6	0x3e1bf48d	0.15230007
7	0x3daa7340	0.083227634
8	0x3dc85145	0.09781126
9	0x3d40c774	0.047065213
10	0xbe27d949	-0.16391481
11	0x3d514ba8	0.051097542
12	0x3d6009ab	0.05469672
13	0x3da445de	0.080211386
14	0xbd8a4b5d	-0.06752656
15	0x3ba9e660	0.0051849335
16	0xbdbe27af	-0.09284913
17	0xbd728f90	-0.059218943
18	0x3dccbafa	0.099966004
19	0xbe21485b	-0.15750258
20	0x3e25e745	0.16201504
21	0x3da4e331	0.08051146
22	0xbd0d4b3e	-0.034495585
23	0x3d305760	0.043052077
24	0xbe07b323	-0.13251929
25	0xbd965bbd	-0.073417164
26	0xbd6a5a70	-0.057215154
27	0xbda229b7	-0.07918113
28	0x3daf1e50	0.085507035
29	0x3ccdd89c	0.025127701
30	0x3e28f5ee	0.16500065
31	0xbd7814e3	-0.060566794
32	0x3d5c39d9	0.053766105
33	0xbde8cbfa	-0.113670304
34	0xbd8b260e	-0.06794368
35	0xbdaa7200	-0.08322525
36	0xbd9fdf93	-0.07806315
37	0xbc928f6d	-0.017890656
38	0xbd60b2bb	-0.05485795
39	0x3da5674b	0.08076342
40	0xbe00d864	-0.12582546
41	0xbd9cf273	-0.07663431
42	0x3e00b177	0.12567697
43	0xbe1fbc93	-0.15599279
44	0xbdd43539	-0.10361714
45	0xbe2988c3	-0.16556077
46	0xbd094d12	-0.033520766
47	0xbe0b1a9c	-0.1358437
48	0x3dc3c5b8	0.09559196
49	0xbdfe32c3	-0.12412026
50	0xbc5698b0	-0.013097927
51	0x3d4be05f	0.049774524
52	0x3d93de73	0.07220163
53	0x3d37f827	0.04491439
54	0xbd03b263	-0.032152545
55	0xbd6833f5	-0.056690175
56	0x3c6d8612	0.014497297
57	0xbdf31bcc	-0.11870536
58	0xbd00c20e	-0.031435065
59	0x3c6907fb	0.014223094
60	0x3dddbc9c	0.1082699
61	0xbdd5a183	-0.104311965
62	0x3dfb2eb4	0.12264767
63	0x3cfdb8cb	0.030971905
64	0xbe0a8fc3	-0.13531403
65	0xbd8cbe72	-0.06872262
66	0x3d95c832	0.07313575
67	0xbd9da3a9	-0.07697231
68	0xbd31e6ce	-0.043433003
69	0x3dcd750d	0.10032091
70	0xbc6a51b1	-0.014301703
71	0xbd8b343b	-0.067970715
72	0x3cb317c1	0.021861913
73	0xbd3396ac	-0.043844864
74	0xbd1249f6	-0.035715066
75	0x3e0403f7	0.12892137
76	0xbda3ca87	-0.079976134
77	0xbde441ec	-0.11145386
78	0x3d8d4f11	0.06899846
79	0xbd9359fe	-0.07194899
80	0xbd8686a6	-0.06568651
81	0xbd497d63	-0.049191844
82	0x3de1e269	0.110295124
83	0x3dc0186a	0.093796566
84	0xbc12d618	-0.008962177
85	0xba1fc0e7	-0.00060941133
86	0x3b8eacb6	0.004354085
87	0xbdd8030e	-0.10547458
88	0xbde2b5ba	-0.11069818
89	0xbde0627d	-0.10956285
90	0x3c6bc4b1	0.014390157
91	0xbd628251	-0.05530006
92	0x3cad1c00	0.021131516
93	0xbe0a9b2d	-0.13535757
94	0x3da31c70	0.079644084
95	0x3dd0279d	0.10163806
96	0xbe695947	-0.22787963
97	0x3d8f84d8	0.0700776
98	0xbdc73014	-0.09725967
99	0xbd64450a	-0.055729903
100	0x3aef7169	0.0018268052
101	0xbdc0539e	-0.09390949
102	0xbc816279	-0.015794026
103	0xbc6077f5	-0.013700475
104	0x3de216f1	0.11039532
105	0xbddf9eb8	-0.10918945
106	0xbd2a68ab	-0.041603725
107	0xbd5596b4	-0.052145675
108	0xbca08d6f	-0.01959869
109	0x3e13c956	0.14432272
110	0x3d359379	0.044330094
111	0x3d94ca4d	0.07265148
112	0x3d4ce7c4	0.050025716
113	0x3dfd0d6c	0.12356076
114	0x3e61e5e5	0.22060354
115	0xbd8a94c4	-0.06766656
116	0xbdc7002a	-0.09716828
117	0x3d19643d	0.03744911
118	0x3d80fe8a	0.062985495
119	0xbd995746	-0.07487349
120	0xbaa2c800	-0.0012419224
121	0x3cd6696a	0.026173312
122	0x3d778672	0.06043095
123	0x3db9ca87	0.09071832
124	0xbd899556	-0.06717937
125	0xbe182c99	-0.14860763
126	0xbcd5632e	-0.02604827
127	0x3dbf2e0b	0.09334954
128	0xbd5f5efa	-0.054533936
129	0xbd8d28e9	-0.068925686
130	0x3dab0a02	0.08351518
131	0xbd321623	-0.043478142
132	0x3d84fd5d	0.06493638
133	0xbd7255eb	-0.05916397
134	0x3dadf6ed	0.08494363
135	0xbdbdbb11	-0.09264196
136	0xbd84b72c	-0.0648025
137	0x3db7cf7f	0.089751236
138	0x3c606ad3	0.013697344
139	0xbdf33502	-0.11875345
140	0xbd17efb2	-0.037093826
141	0x3dc06c9c	0.093957156
142	0x3e0c6e16	0.1371387
143	0xbdfc4364	-0.12317541
144	0xbdac42f9	-0.084112115
145	0xbc4a590f	-0.012350335
146	0x3db2f0b2	0.08737315
147	0x3dc7cc83	0.097558044
148	0x3d0fca39	0.035104964
149	0xbcef2103	-0.029190546
150	0xbdec2044	-0.11529592
151	0x3d809a84	0.062794715
152	0xbde0309a	-0.1094677
153	0x3d812f81	0.06307889
154	0xbddeb6c1	-0.10874701
155	0x3d33aaed	0.04386418
156	0x3da9cc38	0.08290905
157	0x3a979859	0.0011565789
158	0x3d8f6511	0.07001699
159	0x3da093e8	0.07840711
160	0x3ca75d98	0.020430371
161	0x3d513cac	0.05108325
162	0x3dddf2d6	0.10837333
163	0x3c826bd8	0.015920565
164	0x3d3a0ce0	0.045422435
165	0xbdb46747	-0.08808761
166	0xbc9efcc5	-0.01940764
167	0xbcdf7dd7	-0.027281685
168	0xbdefe8ca	-0.11714323
169	0xbdfdd2f3	-0.12393751
170	0xbc54def8	-0.012992613
171	0xbd86da6a	-0.06584628
172	0x3d0ab7f1	0.033866826
173	0xbcc5d81b	-0.024150899
174	0xbd783006	-0.060592674
175	0xbe09067a	-0.13381377
176	0x3e20eb41	0.15714742
177	0xbdf7704d	-0.120819665
178	0xbdc51ed7	-0.09625023
179	0xbc97b7d5	-0.018520275
180	0x3d9409b6	0.07228415
181	0xbbca7248	-0.006178174
182	0xbd5503d1	-0.052005593
183	0xbdf6656c	-0.120310634
184	0x3dc024bf	0.09382009
185	0x3e125d74	0.14293462
186	0x3d957f4a	0.07299669
187	0x3d73b9b9	0.05950329
188	0xbdf7b70b	-0.120954596
189	0xbe051146	-0.1299487
190	0x3d23968a	0.039938487
191	0x3d87bbd6	0.06627624
192	0xbd50d4ed	-0.05098431
193	0x3c8a3529	0.016871052
194	0x3dbcedda	0.09225054
195	0xbe047c5e	-0.12938067
196	0x3cd286b5	0.025698999
197	0x3da76fb3	0.08175602
198	0x3d3227db	0.04349504
199	0xbde33a4f	-0.11095106
200	0xbd5238e0	-0.05132377
201	0xbe0fe18e	-0.14050886
202	0x3d3fd872	0.046837278
203	0xbd6f103b	-0.058365088
204	0xbe4841fa	-0.19556418
205	0xbe02b0ad	-0.12762709
206	0x3db2d1e4	0.0873144
207	0xbdac8903	-0.084245704
208	0xbdec6254	-0.11542192
209	0x3cef7ea1	0.029235186
210	0x3d980909	0.07423598
211	0xbd8af09b	-0.06784173
212	0xbcbb4ed3	-0.022864735
213	0x3e4fd759	0.20296992
214	0x3dea9a7c	0.11455247
215	0x3de1d5f8	0.110271394
216	0x3db845b7	0.08997672
217	0xbd2aec25	-0.04172911
218	0xbc80cb38	-0.015721902
219	0xbe1e70ed	-0.15472765
220	0x3de59524	0.11210087
221	0xbd482c12	-0.048870154
222	0xbe497f02	-0.19677356
223	0xbe3a8fdb	-0.18218939
224	0xbde3c0ab	-0.11120733
225	0xbd0971b6	-0.03355571
226	0xbc54bd19	-0.0129845375
227	0x3e1ec154	0.15503436
228	0xbd29173d	-0.041281927
229	0x3c1d0032	0.009582566
230	0xbd0d45d2	-0.034490414
231	0xbdc6b338	-0.09702152
232	0xbdf86790	-0.12129128
233	0x39e1d866	0.00043076574
234	0x3deb0f09	0.11477477
235	0xbdb020df	-0.0860002
236	0xbd3de88c	-0.046364352
237	0xbda5498f	-0.08070671
238	0x3d191cf3	0.037381124
239	0xbe1667a7	-0.14687978
240	0xbc6b67f4	-0.014368046
241	0x3e523a70	0.20530105
242	0x3d97c243	0.07410099
243	0xbd7cb9d2	-0.06170065
244	0xbdede9bc	-0.11616847
245	0xbd29591c	-0.041344747
246	0xbcb3f287	-0.021966232
247	0x3df225e5	0.11823634
248	0xbe0a409c	-0.13501209
249	0x3e2e1020	0.16998339
250	0x3dc3fc29	0.0956958
251	0x3da215a9	0.079142876
252	0x3be8acaa	0.0071006613
253	0x3ddaf44f	0.106911294
254	0x3d0df514	0.034657553
255	0x3de6c980	0.11268902

lstm.bias_ih_l1 f4 [200]
0	0xbda408a4	-0.080094606
1	0xbd1c8188	-0.038209468
2	0xbd2e6509	-0.042576823
3	0x3cd05a23	0.025433606
4	0x3d7c3f30	0.061583698
5	0x3dfed41a	0.12442799
6	0xbd73a47a	-0.05948303
7	0xbdc888a2	-0.09791686
8	0x3e3a7a2e	0.1821067
9	0x3dc3a5d7	0.09553116
10	0xbdd4f888	-0.10398966
11	0xbd29fa37	-0.04149839
12	0x3e7d7a9c	0.24753803
13	0xbcdec119	-0.027191686
14	0xbcb756c3	-0.022380238
15	0xbc874296	-0.016511243
16	0x3db9027e	0.090336785
17	0x3c964b0d	0.018346334
18	0xbdb8a13c	-0.09015128
19	0x3db16181	0.086611755
20	0x3d552fd7	0.052047577
21	0xbdc7475a	-0.09730406
22	0x3e1a6e27	0.15081082
23	0x3da99b5e	0.08281587
24	0x3d43f881	0.047844414
25	0xbde5a564	-0.112131864
26	0xbc0327f0	-0.008005127
27	0x3df8fd61	0.12157703
28	0x3e431a18	0.19052923
29	0xbb635714	-0.0034689354
30	0x3e153194	0.14569694
31	0xbe06c15c	-0.13159698
32	0x3da813a4	0.08206871
33	0xbdf8afbe	-0.12142895
34	0x3e1a6dec	0.15080994
35	0xbdf59375	-0.11991016
36	0x3da8d87e	0.082444176
37	0x3dbeca46	0.09315924
38	0x3e09a610	0.13442254
39	0x3c90ce44	0.01767648
40	0xbd5a3261	-0.0532707
41	0x3e0b0df1	0.13579537
42	0x3e0066ec	0.12539262
43	0xbd2cd69e	-0.042196862
44	0xbdb61a54	-0.088917404
45	0xbd9d38bc	-0.07676837
46	0x3da181e2	0.07886101
47	0x3b3ab2e1	0.0028487968
48	0xbdd56f4c	-0.10421619
49	0x3d586613	0.05283172
50	0xbccbe128	-0.024887636
51	0xbc33361f	-0.010938196
52	0xbe07cab7	-0.13260923
53	0xbe04028d	-0.12891598
54	0x3d8b6208	0.06805807
55	0xbb2320db	-0.002489141
56	0xbe02bfef	-0.1276853
57	0x3db720a3	0.08941772
58	0x3dddb477	0.108254366
59	0x3dfe4bf2	0.12416829
60	0xbc44aa14	-0.01200344
61	0xbd49e7e5	-0.049293417
62	0xbdf5dba3	-0.12004783
63	0xbdf3593c	-0.118822545
64	0x3d724c62	0.059154876
65	0xbcd82bf2	-0.026388142
66	0xbe0e06c0	-0.13869762
67	0x3d4ad496	0.049519144
68	0x3c94d387	0.01816727
69	0x3e0a916f	0.13532041
70	0xbe096ff4	-0.13421613
71	0xbdf898f3	-0.12138548
72	0xbd97dad8	-0.07414788
73	0x3dd3116c	0.10306057
74	0x3d64a983	0.05582572
75	0x3ba080e7	0.004898179
76	0xbd6905c1	-0.056890253
77	0x3d1f7a95	0.038935263
78	0x3d2094b3	0.03920431
79	0x3db66e9a	0.08907814
80	0xbdff8883	-0.124772094
81	0x3d8784fd	0.066171624
82	0x3a40fabd	0.00073615817
83	0x3d2ac35c	0.041690215
84	0xbd5249ab	-0.051339786
85	0x3db2bca9	0.0872739
86	0xbd75d28e	-0.060015254
87	0x3df61228	0.12015182
88	0xbe0285d1	-0.1274636
89	0xbd3b8a42	-0.04578615
90	0xbd9fcb67	-0.07802468
91	0xbda85235	-0.08218805
92	0x3d1a2060	0.03762853
93	0xbd74e6d4	-0.059790447
94	0x3cc6598e	0.024212625
95	0x3d3b51b2	0.045732208
96	0x3d254845	0.040352125
97	0x3da028db	0.078202926
98	0x3d30814b	0.043092053
99	0x39a0b90b	0.00030655446
100	0x3c54e95f	0.012995093
101	0x3db02813	0.086013936
102	0xbd839514	-0.06424919
103	0x3ce6f508	0.028193012
104	0x3c7db6f5	0.015485515
105	0x3b985b2f	0.004649542
106	0x3ce837fc	0.028347008
107	0xbdb690f1	-0.08914364
108	0x3db4554d	0.08805332
109	0xbe02077b	-0.12698166
110	0xbdc1ebd1	-0.094688065
111	0xbe0e56b8	-0.13900268
112	0x3964117b	0.00021750286
113	0x3e0f5001	0.13995363
114	0x3df73a09	0.12071616
115	0xbdba421a	-0.09094639
116	0x3cb9b05d	0.022667104
117	0xbd3863b6	-0.045016967
118	0xbcf0ca24	-0.029393263
119	0xbdef1223	-0.11673381
120	0x3e042105	0.12903221
121	0xbde18e98	-0.11013526
122	0xbc46ef75	-0.012142052
123	0x3d3e7bb8	0.046504706
124	0xbdeaf84c	-0.1147314
125	0x3c0428d5	0.008066376
126	0x3dc0adbf	0.094081394
127	0x3d9cfcff	0.07665443
128	0x3df9f473	0.12204828
129	0x3e04f6d0	0.12984776
130	0x3deeda71	0.11662758
131	0x3dbf35e8	0.09336454
132	0xbe0db128	-0.13837111
133	0xbd492c9f	-0.04911482
134	0x3d6ad82f	0.057335075
135	0x3d671230	0.05641383
136	0x3b729ab0	0.003701847
137	0xbdf45d09	-0.119318075
138	0xbd86dd93	-0.06585231
139	0xbd93e411	-0.072212346
140	0x3da7a081	0.081849106
141	0xbd54c9aa	-0.051950134
142	0xbc3f1ffa	-0.011665339
143	0xbc8339d6	-0.01601879
144	0x3b8af663	0.0042407974
145	0xbd069af3	-0.032862615
146	0x3ccdc562	0.025118534
147	0xbdc7746b	-0.09739002
148	0xbda01973	-0.07817354
149	0xbd5a6467	-0.053318407
150	0xbc6af8e9	-0.014341571
151	0x3d908082	0.07055761
152	0xbc974715	-0.018466512
153	0xbd709798	-0.05873832
154	0x3dda9cac	0.10674414
155	0x3d15e454	0.036594704
156	0x3e17e07a	0.14831725
157	0x3e0cfd4d	0.13768502
158	0xbc97e729	-0.018542843
159	0xbd4df79e	-0.050284974
160	0xbd93391d	-0.07188628
161	0x3d2cdcfe	0.042202942
162	0x3e27edb7	0.16399275
163	0xbde80249	-0.11328561
164	0xbd50e64c	-0.05100088
165	0x3e4935ce	0.19649431
166	0xbb9e949f	-0.0048394944
167	0x3e24d526	0.16096935
168	0x3d321dd6	0.043485485
169	0x3dfb7392	0.12277903
170	0xbc72039f	-0.014771371
171	0xbd014c12	-0.031566687
172	0x3d01e563	0.0317129
173	0x3e10680a	0.14102188
174	0xbe0b0cd1	-0.13579108
175	0x3c0d0039	0.00860601
176	0xbdb147f3	-0.08656301
177	0x3e1cd39f	0.15315102
178	0x3c493007	0.012279517
179	0x3e0edc68	0.13951266
180	0x3d909bb8	0.07060951
181	0x3d23cd06	0.039990447
182	0xbdc90b34	-0.0981659
183	0x3db3331a	0.08749981
184	0xbde1016f	-0.109866016
185	0x3e0604e7	0.13087808
186	0xbd617e0f	-0.05505186
187	0xbbb9a7c2	-0.0056657502
188	0x3dd8afa3	0.10580375
189	0xbd885047	-0.06655937
190	0xbd829cec	-0.06377587
191	0x3ddd24fa	0.10798068
192	0x3bac1178	0.005251106
193	0x3ce97b69	0.02850123
194	0x3d94d372	0.072668925
195	0x3dea1ec1	0.11431647
196	0x3dda9d17	0.10674494
197	0x3caf5d88	0.021406904
198	0x3dfad3a2	0.12247397
199	0xbdc73fd2	-0.0972897

lstm.bias_hh_l1 f4 [200]
0	0x3e354b6e	0.17704555
1	0xbdb6dcca	-0.08928831
2	0x3dd573b7	0.104224615
3	0xbd6a9c63	-0.05727805
4	0xbc94114e	-0.018074658
5	0x3dbf8bea	0.09352858
6	0xbdbdfb04	-0.09276393
7	0xbc1450c3	-0.009052458
8	0xbd0671a4	-0.03282322
9	0xbdf47773	-0.11936846
10	0x3dcec1cd	0.10095558
11	0x3a03990e	0.00050200603
12	0x3e1992ce	0.14997408
13	0xbd074672	-0.033026166
14	0x3c85c892	0.016330991
15	0x3d84305e	0.06454538
16	0xbda63247	-0.081150584
17	0x3e153d28	0.1457411
18	0xbde3a841	-0.11116076
19	0xbd89098c	-0.06691274
20	0x39b0367f	0.0003360994
21	0x3d9eecef	0.07760035
22	0x3ddf0622	0.108898416
23	0xbdac1002	-0.08401491
24	0xbdedc725	-0.116102494
25	0x3e16ae13	0.14714842
26	0x3d5e880e	0.05432897
27	0x3e0b442c	0.13600224
28	0xbd485749	-0.048911367
29	0x3d864591	0.065562375
30	0x3d8136e6	0.06309299
31	0xbdd9f106	-0.10641675
32	0x3dbf39cb	0.09337195
33	0x3dc9e209	0.09857566
34	0xbd715139	-0.05891535
35	0xbcc9bea7	-0.024627043
36	0x3e1fcfeb	0.15606658
37	0x3e2d9100	0.16949844
38	0x3c6d683d	0.014490184
39	0x3d457f8b	0.048217338
40	0x3d401c2d	0.04690187
41	0x3e56ef58	0.2098974
42	0x3d0c7c4a	0.03429822
43	0x3e297758	0.16549432
44	0x3e10723a	0.14106074
45	0xbc93dc2b	-0.01804932
46	0x3e1f59ed	0.15561648
47	0xbe08c8e1	-0.13357879
48	0x3c2eb7bd	0.010663924
49	0xbd0e8216	-0.03479203
50	0x3dc9f6a2	0.098614946
51	0x3dd2793c	0.1027703
52	0xbb3c7199	-0.0028754233
53	0x3cb730fd	0.022362227
54	0xbe1a5d7f	-0.15074728
55	0x3b56cf9f	0.003277756
56	0x3d3ca356	0.046054207
57	0xbdd35baa	-0.10320218
58	0xbdb345bc	-0.08753535
59	0xbc193216	-0.00935032
60	0x3c27fe23	0.010253462
61	0x3d68daa7	0.056849148
62	0xbdd5a9f6	-0.10432808
63	0xbdff4a02	-0.12465288
64	0xbe1215ec	-0.14266175
65	0x3d8f0a29	0.0698436
66	0x3cc484aa	0.02398904
67	0xbda0ec86	-0.07857613
68	0xbdf264e7	-0.11835652
69	0x3e025d9d	0.12731023
70	0xbc4b7a7c	-0.012419339
71	0xbe0f0c5a	-0.13969555
72	0xbcff7e83	-0.031188255
73	0xbe2306a1	-0.15920497
74	0xbe10be12	-0.14135006
75	0x3d27255f	0.040807124
76	0x3dc20f5f	0.09475588
77	0xbcaf3195	-0.021385947
78	0xbe0f96bb	-0.14022343
79	0x3c6c91d3	0.014439064
80	0x3d9bf1a5	0.076144494
81	0xbc969968	-0.018383697
82	0x3d99f13e	0.075167164
83	0x3d379c11	0.04482657
84	0x3d9c5dd1	0.076350816
85	0xbdc57c50	-0.09642851
86	0xbcc795ce	-0.024363425
87	0xbe02361d	-0.12715955
88	0x3e0ae53e	0.13564011
89	0xbc6c67fd	-0.01442909
90	0xbcb7d42f	-0.022440044
91	0x3da8b9b2	0.082385436
92	0xbdb097f1	-0.086227305
93	0xbdb2b80e	-0.08726512
94	0x3e008391	0.12550189
95	0x3dd8de65	0.105892934
96	0xbe2828f5	-0.16421874
97	0x3dc207b7	0.09474128
98	0x3dc8163f	0.09769868
99	0x3dbf58cd	0.09343109
100	0x3d80d8a7	0.06291323
101	0xba22986b	-0.00062025216
102	0x3deaad22	0.11458804
103	0x3d4208c1	0.04737163
104	0x3dbbc5cb	0.091685854
105	0xbd21380f	-0.039360102
106	0xbd2390d5	-0.039933044
107	0x3de8e0fe	0.11371039
108	0x3c14888b	0.0090657575
109	0x3de8b59e	0.11362766
110	0xbcb5a089	-0.022171276
111	0xbbe34362	-0.006935523
112	0xbc789eab	-0.015174548
113	0xbc3061e0	-0.010765523
114	0x3d090d9c	0.033460245
115	0x3d79091b	0.0607997
116	0xbde0cce8	-0.10976583
117	0x3db36150	0.08758795
118	0x3db3a237	0.087711744
119	0xbdb99577	-0.09061711
120	0x3e06fc14	0.13182098
121	0xbe0ceda9	-0.13762535
122	0xbd1a75ac	-0.037709877
123	0xbc25b999	-0.010115051
124	0xbcde6561	-0.02714795
125	0xbd330fab	-0.043716114
126	0xbd9cb17b	-0.07651039
127	0xbe01560f	-0.12630485
128	0xbd5a5f2b	-0.053313415
129	0xbd9d90e6	-0.07693653
130	0x3dd1fedb	0.10253688
131	0xbcf24778	-0.029575095
132	0xbd118308	-0.03552535
133	0x3d1657f5	0.036704976
134	0x3d924b9b	0.07143327
135	0xbd8c4580	-0.068491936
136	0x3bc0750c	0.005873328
137	0x3ddd33dd	0.10800908
138	0xbda56e4c	-0.08077678
139	0xbdb18ed8	-0.086698234
140	0xbde056cc	-0.10954055
141	0x3d83f1d9	0.06442613
142	0x3dd832c8	0.10556561
143	0xbcefb2ba	-0.029260028
144	0xbe0c7c7c	-0.13719362
145	0xbde5a99f	-0.11213993
146	0xbd81c560	-0.063364744
147	0x3e072600	0.1319809
148	0xbc98480a	-0.018589038
149	0x3db29a03	0.08720782
150	0x3e2d4157	0.16919456
151	0xbe045e69	-0.1292664
152	0x3c621bcd	0.013800574
153	0xbd452727	-0.04813304
154	0x3d8c9f16	0.06866281
155	0xbddb4597	-0.107066326
156	0xbd3618b2	-0.044457145
157	0xbdc48092	-0.09594835
158	0x3e3bb357	0.18330131
159	0x3e0658a9	0.13119759
160	0x3d71d84f	0.05904418
161	0x3e09f769	0.13473286
162	0x3da03b04	0.07823756
163	0xbdb9e97c	-0.09077737
164	0xbd85c6f0	-0.06532085
165	0x3dbe2891	0.09285081
166	0x3e11494a	0.14188114
167	0xbd49a55c	-0.049229965
168	0x3e00bfe3	0.12573199
169	0x3d3c558a	0.045980014
170	0x3cc2b3a9	0.02376731
171	0x3dfacd3a	0.12246175
172	0x3cd2d9bf	0.025738595
173	0xbd922a7a	-0.07137008
174	0x3c45979c	0.012060072
175	0x3d57a644	0.052648798
176	0x3df24d2d	0.11831126
177	0xbbbea855	-0.0058184066
178	0x3dca7357	0.098852806
179	0x3d7e32d0	0.062060177
180	0x3d87d541	0.06632472
181	0x3db5df40	0.08880472
182	0x3d7c899e	0.06165468
183	0x3debdd20	0.115167856
184	0x3de46cb1	0.11153544
185	0xbda2addb	-0.079433165
186	0xbd16f044	-0.03685023
187	0x3dd181cc	0.10229835
188	0x3b90cd97	0.0044190395
189	0xbd20a5bb	-0.039220553
190	0x3c8d4ede	0.01724952
191	0x3e473497	0.19453655
192	0x3dcef500	0.10105324
193	0x3d9f2a1a	0.07771702
194	0x3d95f8f6	0.07322876
195	0x3de0057c	0.10938546
196	0x3d745451	0.059650723
197	0xbd60fede	-0.05493056
198	0xbddf0ce4	-0.108911306
199	0x3d95602f	0.07293736

fc.weight f4 [1, 50]
0	0xbd739711	-0.05947024
1	0xbbf51914	-0.007479796
2	0x3da5653b	0.08075949
3	0x3e048842	0.12942603
4	0xbd980917	-0.07423609
5	0x3c6c520d	0.014423859
6	0xbd57f7cc	-0.052726552
7	0xbe2f8c64	-0.17143399
8	0xbe18506d	-0.1487443
9	0xbd9b5d70	-0.07586181
10	0x3d87b70a	0.06626709
11	0xbd9ba911	-0.07600606
12	0x3e3f9a24	0.18711144
13	0x3e2df9fc	0.16989893
14	0xbdd9f990	-0.106433034
15	0x3e33dd8c	0.17564982
16	0x3dacadaa	0.08431561
17	0x3dcda201	0.100406654
18	0x3e05c99b	0.13065188
19	0xbe17b684	-0.14815718
20	0x3db09897	0.08622854
21	0xbc237032	-0.00997548
22	0xbd91b8e5	-0.07115344
23	0xbe0a29b4	-0.13492471
24	0x3dbfa7b9	0.093581624
25	0xbdb82147	-0.08990722
26	0xbe00efb1	-0.12591435
27	0x3e138bc6	0.14408788
28	0xbdd0467e	-0.10169695
29	0xbe3eca13	-0.18631773
30	0x3e04f823	0.12985282
31	0xbd0c5fc4	-0.034271017
32	0xbdb6caae	-0.08925377
33	0xbd9ec135	-0.07751695
34	0xbe1caed5	-0.15301068
35	0xbe0f45ca	-0.13991466
36	0xbe26327d	-0.16230197
37	0xbe2c9a6f	-0.16855787
38	0xbe251f3d	-0.16125198
39	0xbd1bdfd7	-0.038055267
40	0xbc0205d4	-0.00793596
41	0x3dd92dfc	0.10604474
42	0x3bb36315	0.005474458
43	0xbe42ce91	-0.19024111
44	0xbe2a7a0a	-0.16648117
45	0x3de71033	0.11282387
46	0xbe231737	-0.15926825
47	0xbc0710fa	-0.008243794
48	0x3b71e768	0.003691161
49	0x3ddbd874	0.107346445
