notebooks/results/models/best_model.pth (torch, 131125 bytes, 10 tensors)

lstm.weight_ih_l0 f4 [200, 4]
00000000: 79d0 3e3c 1ffa 1e3e 9b1d 5c3e 3cf7 053e
00000010: 2130 283e ab7a 57bd 56ca d43d db11 003e
00000020: cec3 4ebd 65c6 393e 140f 9dbd cefb 113e
00000030: af4a 873d 0e03 233e 0546 db3d f8a3 f53d
00000040: 7196 ff3d c80e 833e dcc1 5c3e 6c97 633e
00000050: f47b 063d c278 0c3e b444 9b3d 5168 773d
00000060: ef79 f73d 9480 473e c795 cebb 22f3 0e3e
00000070: 09d2 473e 9689 313e febc 683d b7f9 8d3e
00000080: ca1c 343e 9b00 c1bc 6a91 be3d 866a 69bd
00000090: 5b9d dd3d ed9c e83d 561d db3d b6a9 393e
000000a0: bf3d 9bbd 8f94 acb9 2acb 82bd 52f3 01bc
000000b0: 9227 7f3c 8af5 1bbd 7296 70bd d7b8 373c
000000c0: f1b0 a1bd bb12 953d 605a 3dbd 7c78 a5bd
000000d0: 9744 c4bc a07b a8bc 9fac 473c dbac 453e
000000e0: 44e7 133e 92af 13bd 7b64 663e 67af 253e
000000f0: bc54 9c3d cbd3 613d 3485 92bd 834b 733d
00000100: 3cf3 4cbd a4c9 11bd 0448 2d3a 21fe 04be
00000110: c262 443e bc5e 623e a048 91bd bc8b 313e
00000120: 7766 d13d b553 cd3d 58ad 223e 28cc 203d
00000130: b206 a03d cb92 453e 695b 3d3e 865c 293e
00000140: 8963 2ebd 2f03 b03d eef9 db3d 376d aa3d
00000150: 1cb2 9e3d b44e 053e 9d05 90bd fab7 193d
00000160: 3a1c 2bbc 5c38 5b3e 8d9a ce3b 100c 013e
00000170: 7a84 823d d0eb 453e 708a a0bd 85a2 7dbd
00000180: dc91 243e 66f5 873d c01d c73d 4c3b b33d
00000190: 3a47 533d 0c9f 70bd d133 1d3e 5652 893d
000001a0: d6bf 1b3e 5236 323e ce77 a43c afc8 133e
000001b0: 8d5e 743e 3942 4d3e 40fd c93d 6c8c 073e
000001c0: 1548 89bc 18c4 0a3d 16d2 b0bd 251a ac3c
000001d0: 405f a8bd d5f9 213d 3a8b 2bbe 404c dd3c
000001e0: 1c2b 7dbd 0e9e df3d 5580 963d da1a 2b3e
000001f0: 04cd f03c 962b fe3d 9b36 c43d c6f3 e83d
00000200: 5ea7 403e becd d23d bf94 193d c6f1 0c3d
00000210: 7b51 193e 589b 033e 426b ca3b 7871 3c3e
00000220: ce58 353e c75c 1b3d 3150 a73d b2ca 673e
00000230: 30eb aa3c b722 603e 12b4 afbc 525c 4d3e
00000240: 072d 7bbc 0179 ef3d d1c6 6e3d cd1e 113e
00000250: a1ad d03d dbc0 7a3e c2ec c43d eb89 5b3e
00000260: 4fc9 6a3b 3b8e 4b3e d534 0f3e 25c3 803d
00000270: df98 0d3d 8a7d 483e 8e7a 2c3c ddcb ce3d
00000280: 93af 7cbd b8ec 473e b3a0 a5bd 240b 883d
00000290: d5c0 afbb c9aa 2abc 04fa dd3d f422 323a
000002a0: a58c 1a3e 5ccf d13d 9304 44bd 692e 763d
000002b0: 26c7 1c3e 216b ee3d 48b0 153e 6bb6 143e
000002c0: e2ab 8bbd e23b 413e be95 123e 4c31 423c
000002d0: 8bb1 15bd b7d6 853e 9b9c 8a3c 0beb 713e
000002e0: 9e42 a03d 8036 0dbc c9bc 3c3e 3982 2a3e
000002f0: d0bb 6abc 471f a03b bfc7 d93d f9be 293e
00000300: 61eb 14bd 5df6 40bc bef8 adbd 070e ed3d
00000310: fc5a 083e f394 583e 4524 443e 738b 0e3e
00000320: 4d8f 6cbc ad13 183e 8643 cb3b 6225 123c
00000330: 6c9a 9d3d 5037 ca3d 7185 67bd e60a 2d3e
00000340: f190 5d3d 1405 8b3d 8981 043e 4286 513c
00000350: bf1b 0c3d 1358 d5bd 0fb2 153c bff9 5ebd
00000360: 0435 75bd 4a46 a7bc b11a c6bb 474d e93d
00000370: 2bf6 c63d 12a9 9a3d 69cf 9dbb dc1e 323d
00000380: 6d40 ebbd f873 a63c ea59 233d bea3 083e
00000390: a026 de3a 8516 143d 7f1b 973d f586 053e
000003a0: 49c5 4bbd 3abd c43c 2c6a 2b3e 0b30 3fbd
000003b0: 67ab f5bd 984d d83c f000 443d 853b 233d
000003c0: fe3f 6bbc 3ef5 e5bb f951 8b3d 5681 05bd
000003d0: e1bd 48bd ca07 3c3d 7bfc cfbd 4396 363e
000003e0: 2099 ac3c d09c 013d d3f0 c5bd 2d10 24bd
000003f0: 3e36 8cbd d9c2 9ebd fe2c af3c aa8e 34bd
0.011646383 0.15525101 0.21495669 0.13082594 0.1642461 -0.05260722 0.10390155 0.12506811
-0.050479703 0.18142088 -0.076688915 0.14256212 0.06606042 0.15919134 0.107067145 0.11994165
0.12479866 0.25597215 0.21558326 0.22225732 0.032833055 0.1371794 0.075814635 0.06040222
0.12083804 0.19482642 -0.006304476 0.13959935 0.19513716 0.17337641 0.056820862 0.2772958
0.17589107 -0.023559859 0.09305079 -0.056986354 0.10821029 0.11358056 0.10698955 0.18131146
-0.075801365 -0.0003291708 -0.06386407 -0.007931547 0.015573399 -0.03807596 -0.058737226 0.011213503
-0.07895077 0.07278963 -0.046228766 -0.08079621 -0.023958487 -0.020566761 0.012187152 0.1930422
0.1444369 -0.03605611 0.22499268 0.16180192 0.07633349 0.055133622 -0.07154313 0.059398185
-0.050036654 -0.03559269 0.00066101574 -0.12987567 0.19178298 0.22106451 -0.0709393 0.1733846
0.10224622 0.100257315 0.15886438 0.0392572 0.07813777 0.19294278 0.18491901 0.16539201
-0.042575393 0.08594357 0.1074103 0.08321612 0.077488154 0.13018304 -0.07032321 0.03752897
-0.010443741 0.21408218 0.006305045 0.12602258 0.06372924 0.19328237 -0.07838905 -0.06192257
0.16071266 0.06638603 0.09722471 0.08751544 0.0515816 -0.05874543 0.15351798 0.067051575
0.15209898 0.17403534 0.020076659 0.14432023 0.23864193 0.20044793 0.09862757 0.1323716
-0.016758004 0.033878416 -0.08633821 0.02100856 -0.082212925 0.0395449 -0.1675233 0.027013898
-0.06180869 0.109188184 0.07348696 0.16709462 0.029394634 0.12410657 0.09580728 0.11374621
0.18813846 0.102931485 0.03749537 0.03441026 0.14972489 0.12852228 0.006177337 0.1840266
0.17709658 0.037930276 0.08169592 0.22635916 0.0208641 0.21888243 -0.021448169 0.20054749
-0.01533056 0.116930015 0.058295075 0.14171906 0.10189367 0.24487631 0.096154705 0.2143933
0.0035825556 0.19878475 0.13984998 0.06287221 0.034569617 0.1957914 0.010527266 0.100974776
-0.061690878 0.19523895 -0.080872916 0.0664275 -0.0053635635 -0.010416695 0.10838702 0.00067953696
0.15092714 0.10244629 -0.047855925 0.060102854 0.15310344 0.11641527 0.14618027 0.14522712
-0.068198934 0.188705 0.14314935 0.011852574 -0.03654627 0.26140377 0.016920378 0.23624818
0.07825206 -0.008618951 0.18431391 0.16651239 -0.014327005 0.004886541 0.10633802 0.16576757
-0.036357287 -0.011777488 -0.084947094 0.11574941 0.13315958 0.2115057 0.1915446 0.13920383
-0.014438462 0.14851256 0.006203118 0.008920046 0.07695469 0.09873831 -0.056523744 0.16898689
0.054093305 0.06788078 0.12940039 0.012788357 0.03420615 -0.104171894 0.009136691 -0.054437395
-0.059865013 -0.020419259 -0.0060456623 0.113916926 0.097149216 0.07551779 -0.004815985 0.04348646
-0.114868976 0.02031897 0.03988067 0.13343713 0.0016948767 0.03615429 0.07378291 0.13039763
-0.049748693 0.024016012 0.1673972 -0.046676677 -0.11995583 0.026404187 0.047852457 0.039851684
-0.014358519 -0.0070177605 0.068027444 -0.032594047 -0.049009208 0.045905866 -0.10155579 0.17830758
0.02106911 0.03164369 -0.09665074 -0.04005449 -0.068462834 -0.07752008 0.021383759 -0.044081368

lstm.weight_hh_l0 f4 [200, 50]
00000000: f9b6 ce3d abba b33c dfe7 993d bf92 cbbd
00000010: 0971 5d3d facd f83b 9380 83bc 8d63 37be
00000020: b207 f63d 7120 cfbd edd1 7bbc 14de 83bd
00000030: 74b6 f2bd 3ed2 0b3e d812 f33d 787b 293d
00000040: 746f 1ebe fee5 ed3d 03a9 82bd 6dca 0b3c
00000050: e312 e9bd 375c 8f3d f4df 073d 995c f83d
00000060: c294 413d 27b3 fc3c 2a4e a83b 43b7 f7bd
00000070: b733 80bd 246c 83be b63a f2bd 6b72 e13d
00000080: 7808 1bbe 5b88 1f3e 2654 263e b065 063e
00000090: 6708 31be 9721 c23d 494b 133e b6c4 cd3d
000000a0: 7203 b13c bf98 c23d 36d9 12be 4350 b43d
000000b0: fca0 d93d 4a38 f13d 3293 be3c da7d 8f3d
000000c0: d725 a1bd b134 7d3d bbf9 03be 88bd b53d
000000d0: 0029 80bd 39fd 693c f611 823d f45c b1bd
000000e0: bb72 e9bd 1bfd 5fbd 87cd c13d e230 bdbd
000000f0: 637c 8a3c f8a1 a53c 79e0 ad3d 36ea 9fbb
00000100: b2bc 193d 3d4a 2bbd d9ac af3d fb20 813d
00000110: 6536 92bd ada2 843c 77e3 513b 5d86 223d
00000120: d11f d73d a55f d4bd b6b9 7e3d ecfe 67bd
00000130: 3a29 7d3d 8561 febd 5cef ec3d bfff 133c
00000140: 8889 c7bd 86c1 4a3d 06c6 593d 29e5 a8bd
00000150: 0150 96bd 7178 a8bd 36c3 b13c ed0d ef3d
00000160: bacf 29bd 0d4c a73c 17ce 88bd 00cc 65bd
00000170: 901c 923d e7a3 48bd 8f60 10bc 04b1 0ebe
00000180: 2a45 d5bd 5e32 2bbd ab7d 4e3d a0f7 463d
00000190: 67a4 593d 8e6f b6bd a44c b03d dc4d f3bd
000001a0: 8b23 8dbd 7515 cfbd f02e c4bd ad46 dcbd
000001b0: e1d1 e7bd 727d a8bd 8323 cd3d ad44 193d
000001c0: d599 e1bb eaaf b7bd fdfd 003e 1bce 963d
000001d0: de06 cbbd ae7f d33d 95ac 733d d0d6 d23d
000001e0: c094 3bbd 5dad 933d cd9c 933d 728a 5c3d
000001f0: 639b 953c dc32 24bd 52da afbd c0c4 8dbd
00000200: dc29 2e3d 066a e4bc 026a a7bd cfb6 4a3d
00000210: 3940 36be 3003 e7bd 19c2 c0bd faaa a73d
00000220: fce2 b2bd db8c 63bc 10fa e9bc 073e 15bd
00000230: f4a6 82bd f0c5 113e 6085 51bd 10fb 473d
00000240: 94cd 923d 5cf4 193e 8398 b53d 9bb8 06ba
00000250: 371e cbbd dc89 ad3d 4172 ef3d 6814 8e3d
00000260: da7e 60bc 86b5 773d 3c43 443c 8a24 d9bd
00000270: 42ac 47bd 524f cb3d 822e 8e3d a68a d0bd
00000280: 7318 d03c 2a45 083e a3fd 55bd 9bc9 3dbe
00000290: 59f4 bc3c 4434 063e a450 56bd 38ea 02be
000002a0: 27ef c6bc 24db 6a3d b21e 853d fe34 983d
000002b0: 400e b13d 71af debc 8dcb e33d 3e58 aa3d
000002c0: aa04 bc3d df36 fa3d 3790 b63d 45c1 5d3c
000002d0: dd7a 10be 8f74 9c3d 3a42 81bd 4480 7bbd
000002e0: b66a 81bd 4686 ff3d b7f4 20bd 4afc 2fbd
000002f0: 5b81 e2bd ccd7 83bd 351b 08bd 3b3b e33c
00000300: 6ec6 523d a9ad 823d 585e 89bd 2743 003e
00000310: 67fd 0ebe df95 9cbd c54a 44be 6214 393d
00000320: 307f 973d ae08 013e 02a9 24bc 9e48 523c
00000330: 66bc 0f3e 0779 86bd fb40 f7bd c9e2 9fbd
00000340: df12 373d 2c2f 3c3e 9772 b9bd b7a0 90bd
00000350: cf01 0c3e 6d95 a1bd 43a4 70bc d7e8 253d
00000360: 446d 30bd f831 fb3c 175d 18bd 1e1d 453d
00000370: 5d54 df3c 58ad b73d 3b9c cd3d d845 0ebe
00000380: 6027 ac3d 1c86 63bd 3c69 c33c 3716 8abc
00000390: 0765 1abe bcd3 d73d 18e1 5c3d 175d 083d
000003a0: e5c5 0fbd c44b 0abd 8312 d3bd 3c00 03bd
000003b0: 4cec 77be 936f 063e 58ee b2bc 6f42 24be
000003c0: 0ffc 59bd 61b7 d4bc f9b4 05be 4e08 883d
000003d0: a611 233d 84c9 433d dd2d 033e 5a20 17be
000003e0: 7fb3 a23d 4287 53be d7ae b93b 7dc3 67bd
000003f0: 728c d3bd a645 dabd 21fb 0e3e 7785 69bd
0.10093493 0.021939596 0.07514929 -0.09940099 0.054062877 0.0075929137 -0.01605252 -0.1790907
0.120131865 -0.101136096 -0.015369874 -0.064388424 -0.118512064 0.1365442 0.118688285 0.041377515
-0.15472203 0.11616133 -0.06379893 0.008532149 -0.113805555 0.070000105 0.033172563 0.121270366
0.047261007 0.030847145 0.005136271 -0.12095501 -0.06259864 -0.25668442 -0.118276045 0.110081516
-0.1513995 0.15579359 0.16243038 0.13124728 -0.17288361 0.09479063 0.14384188 0.10047285
0.021608088 0.0950179 -0.14340672 0.08804371 0.106264085 0.117783144 0.023263548 0.07006426
-0.078685455 0.06181783 -0.12888233 0.08874041 -0.0625782 0.014281564 0.06351082 -0.086603075
-0.11398836 -0.05468474 0.09463029 -0.09237839 0.016905015 0.020218834 0.084900804 -0.004880215
0.03753347 -0.041818846 0.0857789 0.06305119 -0.07139281 0.016190851 0.0032026449 0.03967892
0.105041154 -0.10369805 0.062188827 -0.056639597 0.061806895 -0.12420944 0.11569092 0.009033143
-0.09743029 0.049500965 0.053167365 -0.08246834 -0.07339478 -0.082260974 0.02169953 0.11672578
-0.04145787 0.020422006 -0.066799335 -0.056102753 0.07134354 -0.048984434 -0.008812084 -0.13934714
-0.104135826 -0.04179608 0.050412815 0.048575997 0.053135302 -0.08907996 0.08608368 -0.11880085
-0.06891545 -0.101115145 -0.09579265 -0.10755668 -0.11319328 -0.08227052 0.10016539 0.03741901
-0.0068847933 -0.089691 0.12596889 0.0736353 -0.09913419 0.10327087 0.05949076 0.102948785
-0.045796156 0.07210801 0.07207642 0.05384297 0.01826257 -0.040087566 -0.08586563 -0.06922293
0.04252039 -0.027882587 -0.08174516 0.049490746 -0.17797936 -0.11279905 -0.09412021 0.08186908
-0.087347 -0.013888563 -0.028561622 -0.036436107 -0.063795 0.14235663 -0.051152587 0.048823416
0.07168117 0.15034622 0.0886698 -0.00051392027 -0.099178724 0.0847356 0.11691714 0.06937486
-0.013702119 0.06047585 0.011978921 -0.106026724 -0.048748262 0.099272385 0.069424644 -0.10182695
0.025402283 0.13307634 -0.05224384 -0.18533938 0.023065733 0.13105875 -0.052323 -0.1278466
-0.024283959 0.057337895 0.06499995 0.074319825 0.08645296 -0.027183266 0.111228086 0.08317612
0.09180577 0.12217497 0.089142255 0.013534849 -0.14109369 0.07639419 -0.0631146 -0.06140162
-0.063191816 0.124767825 -0.03929588 -0.04296521 -0.11059829 -0.06437644 -0.03322907 0.027738204
0.05145877 0.06380779 -0.06707448 0.12525617 -0.13963853 -0.07645773 -0.19169147 0.045185454
0.07397306 0.12600967 -0.01005006 0.012834696 0.14036712 -0.06566053 -0.12072941 -0.07806928
0.04469573 0.1837737 -0.090550594 -0.07061904 0.13672565 -0.07889829 -0.014687601 0.040505257
-0.043072954 0.030663475 -0.037198152 0.04812347 0.027261907 0.089686096 0.10039564 -0.13893831
0.08405948 -0.05554782 0.02385389 -0.016856296 -0.15077601 0.10538432 0.053925604 0.033291902
-0.035100836 -0.033763662 -0.10306265 -0.031982645 -0.24211234 0.131285 -0.021842167 -0.16040967
-0.053218897 -0.025966348 -0.13057317 0.06642209 0.039811753 0.047799602 0.12810464 -0.14758435
0.079443924 -0.20657066 0.0056665945 -0.056582917 -0.10329522 -0.10657816 0.13962986 -0.057012048

lstm.bias_ih_l0 f4 [200]
00000000: f5bf b43d 53bb dabc 0df5 55bd f92f 9c3d
00000010: d510 7cbd 177d 823d 4755 bf3d 2121 80bb
00000020: c419 09be 1c41 e93d 88f5 2abc a101 f83d
00000030: b06e 063e 6a19 0b3e d299 39bd 7580 d43d
00000040: 02da a73d f8e5 13bd ffa0 643d 5dc2 38bd
00000050: 1230 aebd 00cc 5b3e 7133 1cbd 529d e13d
00000060: a1be 123e 463e 0c3e d3d2 983d cdd5 f13d
00000070: bb0d a6bd ca62 1dbe 0720 943d a8df fc3d
00000080: 766d 983c 203f f5bc 5493 9dbd b316 f6bd
00000090: 94a5 8c3e d5a3 453e 77b4 9a3d 9a31 093e
000000a0: c388 293e 59a1 e63d 8f03 a73d 6eba 1b3d
000000b0: 3bb2 713e 605f a53c 6f5a 20bd 7869 133e
000000c0: cd27 1e3e ae12 d03d ff62 e6bd f86a f0bc
000000d0: f11f 90bd ca31 a13d 24b8 953d 6f76 c53d
000000e0: d336 36be 7d36 53bd 52b2 473d 5032 11be
000000f0: 1744 da3d 5edd a53d f426 be3d 480d ebba
00000100: 6a79 fbbd c8e6 31be 158f 9b3d ed36 0dbe
00000110: 2a8a 89bd cc9d e2bd b893 d73d d81a cf3c
00000120: d1f9 c7bc 00ca 813d 2100 d23d 4428 993d
00000130: ee86 12bd d5ec 11bd c292 e13c e621 bbbb
00000140: 19b5 06be 7d00 4b3d 63df 433b 3433 abbc
00000150: 65a8 a5bd b6ec 8dbd b8d5 0dbe 3691 f5bd
00000160: 8d52 e9bd 5f8c 17be c1d0 6dbc 0f69 c2bc
00000170: 7c9d ef3c 4ae4 ff3a a18d 933b 95cd be3c
00000180: 703b 1cbe 29ab dcbd 9dda 953d 17fd 613d
00000190: f836 c2bd 1953 c3bd f166 4e3d a894 e43c
000001a0: f906 3b3c c52c 443d 493b 553d 7043 78bd
000001b0: f5da 4c3d 8659 f1bd 142c 7fbd 98ad 833d
000001c0: a420 d13c 7b4b 103d 95aa d4bb 39f2 6f3d
000001d0: d739 c13d e038 89bd 9db0 8dbd bd08 3c3c
000001e0: cf2f d73d 005b b9bd 67bc 803d 5f4c 733d
000001f0: bf64 143d 25de 8e3d b549 b6bc 2597 353c
00000200: c8da 123d 38dd c1bd 64e9 2dbd c990 b63d
00000210: 32a3 b5bd efc6 a13b f558 293d 8d10 f33c
00000220: 2599 83bd 5f71 6c3d 30b2 93bd b791 84bd
00000230: a561 0dbd 75a1 8cbc da6f bebd b576 89bd
00000240: 751e 703d 8b97 94bd 27ba 423d 740f 053b
00000250: dda5 b8bd 1a0e b23d eb55 33bc 76bc 86bc
00000260: f224 ec3d 46b6 193e a6fc 8c3d 4b5f e6bd
00000270: dc4f a6bc f547 353e 6dac 82bd 2e18 393e
00000280: 5a82 ec3b e633 793a d8a7 2c3e 1fcb 1e3e
00000290: d0ea 1d3e 5d6c 133d 6d15 a03d f141 223e
000002a0: 6b10 f4bd c5ba 3abb a260 5cbc 0c2a 18bd
000002b0: 1f1a 473b aa03 39bd 395c d93d 3138 033e
000002c0: d1f5 c53d 518c f33d b958 ebbc 6a6f ccbc
000002d0: 1597 093d 62e4 9abb 8526 b23d ac5c 4ebd
000002e0: 6c1e 7b3d 45b1 e13d 6017 af3e 501a 4d3d
000002f0: 640a d6bd a058 a03d 4a81 003e b269 4a3d
00000300: eded 133e 4f45 2b3d 25ed 333e f189 363e
00000310: f6ee 92bd 8a04 4f3e 5acc 38bc e3d3 823e
0.088256754 -0.026700651 -0.05223565 0.076263376 -0.06153949 0.06371515 0.09342437 -0.0039101993
-0.13388735 0.11389372 -0.010434516 0.12109686 0.13128161 0.13583913 -0.04531271 0.10376064
0.081958786 -0.036107987 0.0558176 -0.045107234 -0.085052624 0.21464539 -0.038134996 0.110163346
0.14330532 0.1369563 0.074620865 0.118083574 -0.08108088 -0.15369716 0.07232671 0.123473465
0.018606883 -0.029937327 -0.07694116 -0.12016048 0.27470076 0.19300778 0.07553952 0.13397828
0.16556077 0.112612434 0.081549756 0.03801959 0.23603146 0.02018708 -0.039148744 0.14395702
0.1544487 0.10159813 -0.11249351 -0.029347882 -0.07037342 0.07870825 0.07310513 0.0964173
-0.17794351 -0.051565636 0.048754044 -0.14179349 0.10657518 0.08098863 0.092847735 -0.0017933035
-0.12279017 -0.17373192 0.0759565 -0.13790484 -0.06715806 -0.110652536 0.10526222 0.025281355
-0.024411114 0.063373566 0.10253931 0.07478383 -0.03577321 -0.03562625 0.0275358 -0.005710828
-0.13155021 0.049561013 0.0029887788 -0.020898439 -0.08088759 -0.06929915 -0.13851058 -0.119905874
-0.113926984 -0.14799641 -0.014515103 -0.023731736 0.0292499 0.0019522991 0.0045029675 0.023291389
-0.15257049 -0.10774834 0.07317088 0.055173006 -0.09483141 -0.09537334 0.05039114 0.027902916
0.011415237 0.047894258 0.05205849 -0.06061119 0.0500135 -0.11784653 -0.062297896 0.06429595
0.02552826 0.035228234 -0.0064900615 0.05858061 0.0943486 -0.06700301 -0.06918452 0.011476693
0.10507166 -0.0905056 0.06285935 0.059399005 0.03622889 0.069759645 -0.022251943 0.011083399
0.035853177 -0.09466022 -0.042458907 0.08914334 -0.08869018 0.004937045 0.0413446 0.029670978
-0.064256944 0.057725307 -0.07211721 -0.064731054 -0.03451695 -0.017166832 -0.09298678 -0.06712095
0.058622796 -0.07255467 0.04754081 0.00203034 -0.09016011 0.08694096 -0.010945777 -0.016447287
0.11530484 0.15010938 0.06884126 -0.112486444 -0.020301752 0.1770323 -0.06380544 0.1807563
0.0072176876 0.00095063297 0.16860902 0.15507172 0.15421605 0.035992015 0.07816587 0.15845467
-0.11917194 -0.002849267 -0.013450773 -0.037149474 0.003038056 -0.04516951 0.10613293 0.12814404
0.096660264 0.118919976 -0.02872883 -0.02495547 0.03359135 -0.0047269324 0.08698753 -0.050381348
0.06130831 0.110201396 0.3419752 0.05007392 -0.104512006 0.07829404 0.1254932 0.049417205
0.1444623 0.041814145 0.17570932 0.17826058 -0.071744844 0.20216575 -0.01127919 0.25552282

lstm.bias_hh_l0 f4 [200]
00000000: cff8 3c3e 7009 ca3d 67e0 0c3c 0dd2 163e
00000010: 1d51 58bd f695 f2bc dec2 33bd edf4 3d3e
00000020: f2af 24bc c4bc 943d 395b b1bd c6a3 df3c
00000030: 1427 96bb b886 13bd 0c99 523e e1f6 8a3d
00000040: 6390 073e 7f1c cf3d d45f e93d efa9 adbd
00000050: a404 8c3d 1f7c 623d d45d d23d f836 f53d
00000060: 0954 30bc 87b7 303e 070d febd 7c01 1b3e
00000070: 28f9 7b3d 4b4c d93d 6776 cbbd 90fc 023e
00000080: e686 6e3d 0834 933d a09f a5bd c878 e3bc
00000090: a5b3 a33e 9ff0 c43d b776 6b3d 4be6 9d3d
000000a0: ed47 1e3e dd22 dbbd d374 b53d 4c29 373d
000000b0: 1fa4 893d 1975 dd3d 53df b73d a4bf 1a3e
000000c0: cc4b 393e 9753 093e 4517 86bd 1e46 bdbd
000000d0: 0226 39bb 839a c8bd a8d2 733d 7371 013e
000000e0: 154e bfbb 761e 30be a6b0 883d 3e93 5dbd
000000f0: dc53 f9bd 2e44 1cbd 4848 80bd 5734 c2bd
00000100: a795 cd3d 65c8 d0bc 97b5 fdbd 5ec4 55bd
00000110: 4077 893c 0ff1 a23d fe11 3e3d 0ebf 8bbd
00000120: 3ebe 94bd 349c a23c a1ae 97bd 31f1 ed3d
00000130: 2867 693d c22b e0bd 8e3a f5bc dc3c c6bd
00000140: 04e2 2abe 9a76 d43c 4d46 3dbd 8f22 deba
00000150: 81e9 7dbd 4402 b7bd b781 a8bd 057f fd3c
00000160: d9b4 b3bd 5a79 c6bc 61de 37be 6df6 69bd
00000170: 7636 0fbe f972 263d a3b5 9fbc d488 34be
00000180: f609 283c 6c82 243c cfd7 9c3d 9dc0 ddbd
00000190: 0928 cd3d 86e6 a5bd 7f35 1ebd 1a45 e2bd
000001a0: 5849 e23d 970b edbd 082f be3c be18 d43b
000001b0: 6506 063d 7409 c83d 3a38 053e cbec ecbc
000001c0: cd64 04bd a2d0 babc a725 5a3a 3bd6 bb3d
000001d0: c2ae 16be a401 473d ad69 fb3c 3c62 8a3d
000001e0: f097 13bd 08bc 0f3c 310b febd 14bb b4bd
000001f0: 2457 b5bd 4d1c 85bd 417f 4c3d 8dc1 01bd
00000200: 0548 39bc 97e8 e4bd 4813 7cbd 6ae6 cdbd
00000210: b41f c3bc 0d25 b83d 3a32 493d b638 ba3d
00000220: 3c61 a33d d463 5ebd 3d0d b53d 96cc 95bd
00000230: 2dbb 5d3c 27fd 463d 77b8 bb3d 3353 d23d
00000240: 2982 973c 748f ac3d ab89 a33d 0484 553c
00000250: 868d e6bc 861a d5bd 7ab8 0b3e 6c27 f3bd
00000260: 7e5b d83b 3b4b 133d 5ab6 bdbd eb1a 123e
00000270: 85df 0cbd d9ca fe3d 1900 6dbc 80d6 773e
00000280: 2ae9 53bd f1c7 b43b b254 cc3d 7a01 763d
00000290: be77 e53d 3595 dabd 9e38 4e3c 2cf5 483d
000002a0: 0566 a53d f7fa 503d 09b8 1d3e e8bf 9f3c
000002b0: b30a 88bc 0c62 f6bd 1461 88bd b62c 88bd
000002c0: d444 2ebc 5679 a53d 9367 dc3d ea2d 56bd
000002d0: ee36 a13d d9ee 92bd dafb 153e 76d0 fdbd
000002e0: f2b6 b7bd 3e43 c6bc 07bc 373e 74a4 b53d
000002f0: 1a68 62bd 3c02 9d3c fcc9 0e3d b2d0 d1bd
00000300: bc6d 31bd 800e 333e bc06 653e 563c c13d
00000310: b5fb bfbc eb25 3e3e 6baa aa3d 74d7 873e
0.18454288 0.09865081 0.008598424 0.14728566 -0.05281173 -0.029612523 -0.04388701 0.18550463
-0.010051714 0.07262567 -0.086599775 0.027299773 -0.004582295 -0.03601715 0.20566195 0.0678537
0.13238673 0.10112857 0.11395231 -0.08479678 0.06836823 0.055294152 0.102718025 0.11973375
-0.010762223 0.1725751 -0.124048285 0.15137285 0.06151691 0.10610255 -0.09934693 0.12791657
0.058234118 0.071876585 -0.08087087 -0.027767554 0.31972995 0.09616207 0.057486262 0.077099405
0.15457125 -0.10700009 0.08860173 0.04471712 0.06720757 0.1081335 0.089781426 0.15112168
0.1809532 0.13410793 -0.06547407 -0.092418894 -0.0028251414 -0.09795096 0.05952707 0.12640934
-0.0058381655 -0.1719912 0.06674318 -0.0540955 -0.12174198 -0.03815096 -0.062637866 -0.09482639
0.100383095 -0.02548618 -0.12388151 -0.052189223 0.016780496 0.079561345 0.046403877 -0.0682355
-0.07262848 0.019849874 -0.07406355 0.11618269 0.056983143 -0.10945846 -0.029935148 -0.09679577
-0.1668778 0.02593546 -0.046209622 -0.0016947555 -0.061990265 -0.08935979 -0.08227866 0.030944357
-0.08774728 -0.024227787 -0.17955925 -0.057119776 -0.13985619 0.04063699 -0.01949579 -0.17630321
0.010256281 0.010040861 0.0765835 -0.10827754 0.10017402 -0.081006095 -0.038625237 -0.11048336
0.110491455 -0.11574476 0.023215786 0.006472676 0.032720942 0.09767428 0.1300973 -0.028921505
-0.032322694 -0.022804562 0.00083216507 0.091717206 -0.14715102 0.04858555 0.030690039 0.06757018
-0.03603357 0.0087728575 -0.12404478 -0.08824745 -0.088545114 -0.064995386 0.049926046 -0.031678725
-0.011308675 -0.111771755 -0.061541826 -0.100537136 -0.023818828 0.08991442 0.049120165 0.09092848
0.0797753 -0.054294422 0.088404156 -0.07314412 0.013533396 0.04858127 0.09166043 0.10269775
0.018494682 0.08425799 0.079852425 0.013031963 -0.028143656 -0.104054496 0.13644591 -0.118727535
0.0066027036 0.035960417 -0.092632964 0.14268081 -0.034392852 0.12441034 -0.014465355 0.24202919
-0.051736034 0.005516999 0.09977092 0.060060002 0.1120448 -0.1067299 0.012586741 0.04906194
0.08076099 0.05102059 0.15402235 0.019500688 -0.016606664 -0.1203042 -0.06659141 -0.06649153
-0.010636527 0.080797836 0.10761943 -0.05228988 0.07871805 -0.07174463 0.14646855 -0.123932764
-0.08970441 -0.024201985 0.1794282 0.088692576 -0.05527506 0.019166104 0.034860596 -0.102448836
-0.04331754 0.17486 0.2236585 0.09435336 -0.023435453 0.18569152 0.08333286 0.26531565

lstm.weight_ih_l1 f4 [200, 50]
00000000: 33be 1dbd 764d 983d dc3a 6b3d 7817 233e
00000010: 29c6 f23d 771d d43d d636 6bbd 0153 233d
00000020: 2388 2fbd 438c 2a3e 18a3 b13d a670 00be
00000030: 8ca4 9b3d bb7a 143e bc2c 6b3d 7fab b9bd
00000040: 2ad9 013e 1743 b4bd 2970 1b3c 6f71 6c3d
00000050: ff7d c5bd 1a9d 093e 9816 00be 8daf a5bd
00000060: fc12 0bbe 2989 9cbd 9785 21be eda2 0e3d
00000070: c9ca ccbd 86ee e33d 2ed0 13be 4b75 9bbd
00000080: b390 e0bc 6580 ba3d 7744 553c d350 063e
00000090: 0054 1abd 3a76 2dbd 7ecf 46bd a54b cbbd
000000a0: 536f ee3d 90c1 1f3e 9b51 debd 3238 d03d
000000b0: 1543 3dbe 67e9 493d 8500 c0bd 4c67 98bd
000000c0: a509 2f3e 08db 563c 6ffe b2bc a8be 0ebe
000000d0: 2e1d 3fbd d67f 84bd a823 293e 46d1 d33d
000000e0: 89a2 93bd 4d2d 1fbe 1839 33bd ed6a df3d
000000f0: 75d6 2f3e 3ec7 3ebe c694 913c 9c67 38bd
00000100: d9e1 243e 26c4 8dbd 6292 aebc bac2 0f3e
00000110: 31fe 8ebc e8c2 de3d ebc4 613d 6650 21bc
00000120: 7ebb 59be 0085 64bd a73e 76bc 5bf3 45bd
00000130: d306 8c3d fee4 91bc 9b99 cabd 3eff 13be
00000140: f8e8 72be 23dd 55bc e284 883d bc89 5fbb
00000150: ee7c 46bd 885b 583e f0a1 2bbe 7b56 e13d
00000160: c67b 9cbd aff9 1ebe e405 093e f6ff 7d3d
00000170: e42d e1bc d0e3 cebc 61bc 0c3c ccfe 073e
00000180: e60c b83c 5d26 b1bd 3203 5d3d ffef 1ebb
00000190: 7002 f93a a401 9fbd 3ca4 ef3a 4bda 18bd
000001a0: b5db 7dbd c2ea b2bd d746 d2bd 2475 9fbd
000001b0: 04c1 88bd 50fe e73d df43 f03d cd10 adbd
000001c0: fd26 bb3d 6d6c 483e 9925 92bd 4e22 cebd
000001d0: 7e43 1d3e 04e2 aa3a 72cd 8bbd 1c77 e2bc
000001e0: 2981 043e c79f 89bd f5f2 1bbe 24f5 4dbd
000001f0: 06cc d23d 04da eebd 06fb 81bd 71b3 2e3d
00000200: b445 debd 022f 003e 21e9 21be f6fa f3bc
00000210: dbd5 8d3c 74a3 acbc d1ab 173d afe3 ae3d
00000220: d1e6 b0bc 67cc 0dbd 6539 0f3e 7d51 6d3c
00000230: f4bd bfbb f086 0c3e f218 36be 7148 d93c
00000240: d9fb a33d f973 ca3d 4a06 cd3d 16e7 a5bc
00000250: cf62 173e cf43 0a3d d80c d23d b74c a0bd
00000260: 6d3b dc3d e6e2 6b3d c8ce 73bd 7c8b cebb
00000270: 4ab3 0f3e 408c 213d 9d8e debc 88d0 413d
00000280: a0e7 acbd dc8f 23be ae6f 893d 1d4a 82bd
00000290: 1d86 c6bd aea8 f23d 3b84 903d 66ad b8bd
000002a0: 7c59 bebd 0c75 193e dce1 c4bd f9db e23d
000002b0: 05c2 ad3c 3679 2fbc bc96 e23c a319 943d
000002c0: ff94 1cbd 2434 b43c 9919 01bd 7b8e c6bd
000002d0: 89a6 cc3d 067d 203e eba1 063c 112b d0bc
000002e0: 94af 6abd 3c6d 1c3e d5b7 613d 8233 05bc
000002f0: 2fdf 543d ddd5 60bd 258b be3d b44d c93d
00000300: ed95 1d3e d37a eabd 94ed c5bc c422 c5bd
00000310: c2f0 dd3c 0976 043d 341a d23d da92 9a3c
00000320: 1a42 8cbd 3af9 9ebc eb5d 70bd 0e16 a4bc
00000330: 2a2d 1b3d 8c08 723d 684e 77bc 26d3 1ebd
00000340: 1d46 50bd 2963 db3c 97e2 6dbc 78ed 9abd
00000350: a748 15bd 0f82 b63d 58a1 583d 1193 313d
00000360: 6c99 0e3e 5a99 343d 7a6c 32bd 3cfe d7bd
00000370: a1cf d53d 813a d3bd 709e 22bc 2fe3 af3d
00000380: 9b7c e6bd 1ec6 853d 1d10 28bd 63ea 02be
00000390: 78d0 143d d2e8 b83d 7b44 97bd 52b1 203d
000003a0: 479b d9bc 4c18 8abd b250 8cbd 63cf 97bd
000003b0: cda0 e2bd fe0a 06be e5ef 20be 17e0 1e3e
000003c0: 1621 1b3e 047f 05be 92bb 70bd 6f72 3abc
000003d0: 05bc 2ebe a686 893d 6904 e83d f6b2 04be
000003e0: 750c 96bb 5b8e a13d 8590 e3bd 2df7 bebd
000003f0: a314 0d3e 28a5 90bd fd67 8cbd 552a 98bd
-0.038511466 0.074366495 0.05742918 0.15926921 0.11854202 0.103571825 -0.057425343 0.03987408
-0.04285444 0.16655068 0.08673686 -0.12542972 0.07599744 0.14499943 0.05741571 -0.090659134
0.12680498 -0.08801859 0.00948719 0.057725366 -0.096431725 0.13438836 -0.12508619 -0.08090124
-0.1358146 -0.07643349 -0.15773617 0.034823347 -0.09999616 0.11129479 -0.14434883 -0.07590731
-0.027412748 0.091065206 0.013016812 0.1311677 -0.037677765 -0.042349078 -0.048537724 -0.099265374
0.11642327 0.15601182 -0.10855409 0.101669684 -0.18482621 0.049294855 -0.09375099 -0.07441577
0.17093523 0.013113745 -0.021849839 -0.13939917 -0.046658687 -0.06469695 0.16517508 0.1034265
-0.072087355 -0.15544625 -0.04375562 0.10909066 0.17171653 -0.18630692 0.017771136 -0.045020685
0.16101779 -0.06922178 -0.021310035 0.14039126 -0.017455192 0.10877019 0.055119436 -0.009845829
-0.21262929 -0.0557909 -0.015029586 -0.048327785 0.06837239 -0.017809387 -0.09892579 -0.14452836
-0.23721683 -0.013053211 0.066659704 -0.0034109196 -0.048458986 0.21128666 -0.16760993 0.11002823
-0.076407954 -0.15524934 0.13381153 0.06201168 -0.027487703 -0.025255114 0.008589835 0.13280791
0.022467088 -0.08649895 0.053958125 -0.0024251936 0.0018997919 -0.07763985 0.0018283199 -0.037317555
-0.061977107 -0.08736183 -0.10267418 -0.07786015 -0.0667744 0.11327803 0.117316954 -0.0845047
0.09138296 0.19572611 -0.071360774 -0.10065137 0.15357777 0.0013037329 -0.06826295 -0.027644686
0.12939896 -0.06719928 -0.152294 -0.050282612 0.10292821 -0.11662677 -0.06346707 0.042651597
-0.108531386 0.12517932 -0.15811588 -0.029782753 0.017313888 -0.021074034 0.03702909 0.08539521
-0.021594437 -0.03461876 0.13986738 0.01448476 -0.0058515016 0.1372335 -0.17782953 0.0265238
0.080070205 0.09885401 0.10010965 -0.020251792 0.14783786 0.033756074 0.10256356 -0.07827132
0.10753522 0.057589434 -0.059523374 -0.006303249 0.14033237 0.039440393 -0.027167613 0.04731801
-0.084426165 -0.15972847 0.06710754 -0.06361792 -0.09693549 0.11848579 0.07056471 -0.09017448
-0.092944115 0.14986056 -0.09613392 0.11077113 0.02121068 -0.010710051 0.027659766 0.07231452
-0.03822803 0.021997519 -0.031518552 -0.09695145 0.099927016 0.15672693 0.008217315 -0.02541116
-0.05729635 0.15276045 0.055106957 -0.008129956 0.051970657 -0.054891456 0.093038835 0.09829274
0.15389223 -0.11449208 -0.024161138 -0.09625772 0.027092341 0.03233913 0.10258904 0.018868852
-0.06848545 -0.01940595 -0.058683317 -0.020030048 0.03788487 0.059090182 -0.015094377 -0.038775586
-0.050848115 0.026780682 -0.014519355 -0.07564825 -0.03644624 0.089115255 0.052888244 0.043353144
0.13925713 0.04409156 -0.043560483 -0.10546538 0.10439993 -0.10313893 -0.00992547 0.08588254
-0.11254235 0.065319285 -0.04103099 -0.12784724 0.036331624 0.09028782 -0.073861085 0.039231606
-0.0265633 -0.067429155 -0.06851329 -0.07412603 -0.110658266 -0.1309013 -0.15716513 0.15515171
0.1514934 -0.13036734 -0.05877263 -0.011379822 -0.17063911 0.06715135 0.11328966 -0.12958893
-0.0045791217 0.0788848 -0.11111549 -0.09324489 0.13777404 -0.07062751 -0.06855772 -0.07429949

lstm.weight_hh_l1 f4 [200, 50]
00000000: 46bc 5cbd 7384 aebb 9549 2b3d 9fb4 cfbc
00000010: c091 bf3d 4258 f63c ff42 093e 915a 013d
00000020: 735c cfbd bffb a33d 8b12 a8bc 20bb dcbc
00000030: b841 9cbd 5e69 06bd 66f3 b2bc a743 3bbd
00000040: a6e8 373e 5e6c 1cbe 8755 bbbd d438 eabd
00000050: 4799 e43d 2d62 c83d 99c3 6fbd 9a4b e3bd
00000060: 804b 13bb 0231 a4bd cade 453e c2c6 b5bd
00000070: 2a49 c7bd d6a0 7fbd 2cdd 8c3d d466 d93c
00000080: f745 b1bd 5aa3 05be 2275 c73c 4905 a53d
00000090: 62dc b5bc 2701 e53d ba78 603d 1aca 2b3d
000000a0: 7edf 06be 21c1 c7bd 99e4 6abc 0364 6d3d
000000b0: 62da 08be ad77 dcbd 851c 5b3c ebdf 423d
000000c0: ad54 283c ecb3 3c3e 15e6 d73d 99d0 1d3e
000000d0: cc14 7fbd c516 3fbe 1bef 9d3d 8afa b5bd
000000e0: 706c da3d 004e c8bc 0a3b d8bd 08ec 85b9
000000f0: d034 90be f26f 4abb c934 60bd 0eef e8bd
00000100: fb8a 1d3e f45e 3ebe 373e 68bd 36be 233e
00000110: 04c0 473c 40ad 9fbb 2fdb 143e eca4 92bd
00000120: 82b2 2c3e 6033 993d aa01 f33c 4894 94bd
00000130: 27a0 27be 3cc8 0fbc 8c70 ad3d 0646 903c
00000140: bd18 b6bd 3280 88bd 2e12 123e 3312 15be
00000150: 5c80 8a3c 6713 963d d497 a2bd 1329 c1bd
00000160: 2b0b 793d 3ec1 893d 70f8 3e3e 05d2 ea3d
00000170: a99e 5d3e 3cf4 133e f0a6 24be 0798 1fbd
00000180: f40e d7bc f90c 973d 5782 0f3e 4038 2d3e
00000190: 67bf 003e fca2 6c3d a14f d0bc f755 f2bd
000001a0: fd0e 65bd e3de 023e bc99 b93d 0824 7bbd
000001b0: 7609 01be 251d 983d 410e edbd 3fa4 d73d
000001c0: 301e cebd 6236 ba3d d862 fcbd 26fa 46bd
000001d0: ae53 3abd 81c8 8dbd 969b d7bd d5d6 963d
000001e0: cbc1 733d abb5 b03d c72b 5ebd 74d7 913d
000001f0: c349 083d ee11 26be 77a8 55bd 23b3 e5bd
00000200: 87da 03be 4f39 913c f6cd 753d 8a8e 0bbe
00000210: 8b12 66bb d01f 11bc fe97 023e c2f0 273d
00000220: 161f 4a3d 5a5d 243d d688 e73b 6eaf 863c
00000230: 3523 afbd 2aee d23d d0b6 b9bd 34d4 6cbd
00000240: 98ff 903b 0b24 b33b 4323 06bc d3cf c0bd
00000250: e730 33bd e7f5 b9bd df58 c8bd 0ab3 0cbe
00000260: 3a9f 963d a246 843d cf6e 503e 9ba4 2f3d
00000270: f032 20bd ac45 9c3d 024a 753d b181 053d
00000280: 1900 853d 89c9 273e fd51 83bd 7ae0 e8bc
00000290: 1798 0a3e d655 993d a57a 0fbd 80db 603c
000002a0: dcdd 933b 3db6 8ebd 2bb7 6e3c 5c11 82bd
000002b0: 8002 543e 696a aabd 197f 023e fe18 0b3e
000002c0: 98a1 e13a 38a5 c3bd 6d5c 72bd 257f f63d
000002d0: 95e5 ce3d 5715 b2bc eac8 98bd 199f ddbc
000002e0: 6153 d7bd e2aa 5ebd 8043 fb3c d03c 273e
000002f0: 8eda 84bd c743 a53d 476e 5e3d bbae b73d
00000300: eeff 9a3d 454b 7a3d 3b66 dcbd d0c6 b2bd
00000310: d210 233b 1811 503d ed72 983d 050d fe3c
00000320: ead4 6abd eeeb 54bd bdc7 5c3d ef58 c93c
00000330: 53d2 7d3d 836f b83d 56e3 20be e40e fc3d
00000340: aa0f 71bc 6b37 fe3d 3488 573d fca0 e53d
00000350: a52a 5c3d b40a 8ebd 642c 033e a28f cf3d
00000360: 0810 a2bd 4292 123e c1a7 ecbd 9045 96bd
00000370: 1759 4cbd 6a91 193d 43cc 15bd 155b 13bd
00000380: a735 f0bb 26c2 d0bd b15a 06be 0b59 58bd
00000390: 2016 00be 691f b4bc bcdb 113e 149f 173e
000003a0: c77a e73d 9dbf 003d 182f 2d3c 128a 943d
000003b0: 1610 1ebd 6318 76bd 4ed0 77bd 580b 0bbe
000003c0: c473 e0bd 2de1 163e 5396 f83b 0875 abbd
000003d0: 901d d03d 5318 e13d b44a 90bc 0f5f d33c
000003e0: ef96 383d 2c86 ee3d 11fd b1bc 994a b73d
000003f0: 352a 0bbe bbce bfbd a9ad 9fbd e02d 963c
-0.05389049 -0.005325848 0.04181822 -0.025354682 0.093539715 0.030071381 0.13404463 0.03158051
-0.10125055 0.08007001 -0.020516654 -0.026944697 -0.07629722 -0.03281533 -0.021844577 -0.045718815
0.17959842 -0.15275714 -0.091471724 -0.1143662 0.11162048 0.097843505 -0.058536146 -0.11098404
-0.0022475421 -0.0801716 0.19323269 -0.08875801 -0.09730752 -0.062409244 0.06878123 0.02653829
-0.08655923 -0.13050595 0.024347845 0.08057649 -0.022199813 0.111818604 0.054802634 0.041940786
-0.13171193 -0.09753633 -0.0143367285 0.057956707 -0.13364556 -0.10765014 0.013373499 0.047576826
0.0102740945 0.1842801 0.105419315 0.15411605 -0.062275693 -0.1866103 0.077116214 -0.08885677
0.10665214 -0.024451256 -0.10558136 -0.00025543594 -0.28165293 -0.0030889479 -0.05473784 -0.11373721
0.15385048 -0.18590909 -0.056699958 0.15990528 0.012191776 -0.004872948 0.14536737 -0.071603626
0.1686497 0.07480502 0.02966388 -0.07254845 -0.16369687 -0.008775767 0.08468732 0.017611515
-0.08891437 -0.06665076 0.14264748 -0.14557724 0.01690691 0.073279195 -0.07939115 -0.094316624
0.060801666 0.06726311 0.18649459 0.11465839 0.21642555 0.14448637 -0.16079307 -0.038963344
-0.026252247 0.07375521 0.14014564 0.16915989 0.12573014 0.05777262 -0.025428595 -0.11832803
-0.055922497 0.12780337 0.09062526 -0.06131366 -0.12601265 0.07427434 -0.11574984 0.10529374
-0.100643516 0.09092404 -0.123235404 -0.048578404 -0.04548996 -0.06923009 -0.105277225 0.07365195
0.059510987 0.086284004 -0.054240968 0.071211725 0.03327347 -0.16217777 -0.052162614 -0.11215808
-0.1287633 0.017727522 0.060010873 -0.13628593 -0.0035106267 -0.008857682 0.12753293 0.04100109
0.049346052 0.04012809 0.0070658727 0.016441073 -0.08551637 0.102993324 -0.09068072 -0.05781956
0.0044250004 0.005466943 -0.008187118 -0.09414639 -0.04374781 -0.09080105 -0.09782576 -0.13740173
0.07354589 0.06458785 0.2035477 0.04288159 -0.039111078 0.07630476 0.059885032 0.032594386
0.06494159 0.16385473 -0.064121224 -0.028427351 0.1353458 0.07487075 -0.035029072 0.013724208
0.0045125317 -0.06968353 0.014570038 -0.06350967 0.20704079 -0.083210774 0.12743796 0.13583753
0.0017214296 -0.09552997 -0.059170175 0.1203597 0.10102383 -0.021738691 -0.07460196 -0.027053403
-0.1051395 -0.054362185 0.030671835 0.16331792 -0.064869985 0.08069568 0.054304387 0.08968874
0.07568346 0.06110694 -0.107616864 -0.08729327 0.0024881852 0.050797552 0.07443795 0.031012068
-0.057331957 -0.051982813 0.053901423 0.02457854 0.06196816 0.09005644 -0.15711722 0.12307528
-0.014713207 0.12412914 0.052620128 0.11212346 0.053751606 -0.06935635 0.12809902 0.10134818
-0.07913214 0.14313605 -0.11555434 -0.07337487 -0.04988965 0.037492193 -0.036571752 -0.035975534
-0.0073306146 -0.10193281 -0.13120534 -0.052819293 -0.1250844 -0.021987634 0.14243978 0.14806777
0.11302715 0.031432737 0.01057031 0.07252897 -0.03858956 -0.06008185 -0.06050139 -0.13578546
-0.109595805 0.14734335 0.0075862794 -0.08371931 0.101618886 0.109909676 -0.017613746 0.025802163
0.045065816 0.11646685 -0.021727117 0.08949775 -0.1359032 -0.093656026 -0.07796795 0.018332422

lstm.bias_ih_l1 f4 [200]
00000000: 4698 55bd d93b 073e 7283 e83d 17d5 b43d
00000010: 4915 07be 3cac 1b3e 00d6 8ebd 46c8 6a3c
00000020: 061b cb3d fc2c 1d3d b40a ebbd fe06 173e
00000030: 022d 273d 8ce8 243e 767a 80bc 9c5f 023e
00000040: 1e9d ce3d b5f0 1a3e ef32 d2bd 5d40 c23d
00000050: 2607 a0bd 52e7 9bbd 8794 d53c 0118 c53c
00000060: b552 6dbd 35ad e8bd f155 4f3e a89b 1c3d
00000070: 7bf6 9f3d 6076 53bd 9d5e 8e3d f5ca 683c
00000080: 076d 41bd c13d 4e3e 896f a7bd 020e 96bc
00000090: 508f c5bd b119 ff3c 9171 273e 1723 8abd
000000a0: e265 863d 08aa 4cbd b535 a1bd 7f77 edbd
000000b0: 0365 b6bc fbf5 dfbb 6496 bdbd d474 85bd
000000c0: ebd5 723d 9651 babd 8bb6 c6bd ccc2 cabd
000000d0: dd1b 17bd 2701 0a3d e0ba 6d3c a5cf 6a3c
000000e0: cab8 8e3d f13b 6e3d c3e2 0a3d 19b7 f5bc
000000f0: 8066 a7bd 8bff 1dbd 7bc7 a4bd 3244 cd3d
00000100: 5cdc 22bd 1ee2 663d 731b b7bc 8fbd 3eb9
00000110: bff9 a1bd 94ca ddbd 57c7 2cbe a885 2e3d
00000120: 6841 cdbb 8fbd 3fbe 0efd adbc cdb0 b13c
00000130: aab4 19bd 855d 10be e0c1 993d ea54 36be
00000140: bac1 643c f5f6 9fbc 51a3 32be 1c0c 6abd
00000150: 4963 9fbc b56e ba3c 5e0c c4bd 596a ab3c
00000160: 8bbb f03d 18ba 513c b5ed d5bc d958 6c3d
00000170: f5e2 bebd e91c e43d 29e1 c73d b867 f33d
00000180: 22d7 9cbd defa e7bc 5ce2 76bd cb67 2cbd
00000190: 7091 f73d b1b1 2a3d bf1e d4bc cb8c bfbd
000001a0: b093 d8bd c210 56bd 35e0 a8bd af64 0cbd
000001b0: 17d0 293d 1698 f8bc bb1c 7fbd 0e1c 2bbc
000001c0: 6762 f13c dd8b 54bd 6d36 fdbc d584 edba
000001d0: e3c4 433d b57b 483d 036f e63d 6327 fb3c
000001e0: 0607 7e3d 7bf9 b63d d386 44bc 35e8 49bd
000001f0: ca20 f93d 1035 103d b5d4 6f3d 0887 633d
00000200: 4476 4cbd 2d77 1ebd 36b4 fdbd a9a2 0ebe
00000210: 1168 56bd 86c7 cbbd 9c39 17be 684f 69bb
00000220: ef6f cc3d dd3b d5bd 00c3 27bd c6ac aebd
00000230: 8923 c53d ca0e b8bd 0680 dd3d d48c 213c
00000240: ffe2 aabd d2b1 423d 25eb 25bc cede c03d
00000250: 0058 8bbd 5259 783d 9d93 91bd 8265 633e
00000260: 94bc 253d fd1f 613d c799 873d 3e0d 8e3d
00000270: 765a 1f3e 7e72 543c e7ef 023d 1b2e 9e3d
00000280: 0cba a53d 31e4 b0bd c9a5 403d e836 3b3d
00000290: f4fe fb3a a3ef 03bd 2cbd e33d 46c9 56bd
000002a0: dec6 b6bc 7f1b 69bc a671 9dbd 3b7a 5e3d
000002b0: 4ad7 9abd c933 ab3d 9cbe 233e 1747 0b3e
000002c0: 6004 043e 8f20 d53d 277c 49bc ccb7 c4bc
000002d0: a96e 46bd 35a7 303d 819c 963d 1888 0e3e
000002e0: 2e15 e0bd 2648 14bd 64bc a53d 074b 003e
000002f0: da8b d93d 4812 193d 9863 34bd fbf5 c83d
00000300: 03e2 9abb 9ea3 203e b148 2bbd 2d7b 39bd
00000310: f6e4 ccbd 9faf 0c3d 45ff 24bd 193c 063e
-0.052147172 0.13206424 0.11353196 0.08829706 -0.13191713 0.15202421 -0.06974411 0.0143299755
0.09917264 0.03837298 -0.11476651 0.14748761 0.040814407 0.16104335 -0.015683394 0.12731785
0.100885615 0.15130885 -0.10263621 0.094849326 -0.078138635 -0.0761248 0.0260718 0.024059298
-0.057940204 -0.113611616 0.20247628 0.038234383 0.07810684 -0.051626563 0.0695164 0.014208545
-0.047223117 0.20140745 -0.081755705 -0.018317226 -0.09646475 0.03114018 0.16351916 -0.06744974
0.06562401 -0.049966842 -0.07871572 -0.11595058 -0.022264963 -0.006834743 -0.092572 -0.06516424
0.05928604 -0.090975925 -0.09702786 -0.09900436 -0.036891807 0.033692505 0.0145098865 0.014331733
0.069688395 0.058162633 0.033907663 -0.029994534 -0.08173847 -0.038573783 -0.080458604 0.10022773
-0.039760932 0.056367986 -0.022351956 -0.00018190428 -0.079089634 -0.10829654 -0.16872917 0.042607933
-0.0062639005 -0.18724655 -0.02123883 0.02169075 -0.03752581 -0.14098175 0.07507682 -0.1780583
0.013962204 -0.019526938 -0.17445113 -0.057140455 -0.019456523 0.022757867 -0.09572671 0.020924734
0.11754521 0.012800716 -0.026114324 0.05770192 -0.09320632 0.11138327 0.09759743 0.11885017
-0.07658221 -0.028317865 -0.060274467 -0.042091172 0.12088287 0.041673366 -0.025893567 -0.09353026
-0.10575044 -0.052262075 -0.08245889 -0.034275707 0.041458216 -0.030345958 -0.06228326 -0.0104437005
0.029465867 -0.051891197 -0.030909741 -0.0018121252 0.047795188 0.0489461 0.112516426 0.03065843
0.062018417 0.089343034 -0.011995035 -0.049293716 0.12164457 0.035206854 0.058552463 0.055548698
-0.049917474 -0.038687874 -0.12387888 -0.13929237 -0.05234534 -0.099501655 -0.1476807 -0.0035600308
0.09982287 -0.10411809 -0.04095745 -0.08529048 0.096259184 -0.08987196 0.10815434 0.009860236
-0.08344077 0.047532864 -0.010126864 0.094174966 -0.06803894 0.060632057 -0.07108233 0.22206691
0.040463045 0.054962147 0.066211276 0.069361195 0.15561852 0.01296675 0.03196707 0.07723638
0.08092126 -0.08637274 0.047033105 0.04570666 0.0019225762 -0.032210957 0.11120066 -0.052438043
-0.022311624 -0.014227747 -0.07687692 0.054315787 -0.075605944 0.083594866 0.1599068 0.13601337
0.12892294 0.10406601 -0.012297667 -0.024013422 -0.048445377 0.04312821 0.073540695 0.13919103
-0.1094154 -0.03620162 0.08092573 0.1252862 0.10622378 0.03737095 -0.044040293 0.09812542
-0.0047266497 0.15687415 -0.04181737 -0.045283485 -0.10004608 0.034347173 -0.040282506 0.13108863

lstm.bias_hh_l1 f4 [200]
00000000: 0cdf 1d3e 9e85 843d 073a bf3d 8a01 1d3e
00000010: c4c4 3fbd 9b1d bfbd 0dc6 063d 63f7 7abd
00000020: e149 25bc 73ab c93d 348b 253c 1035 8e3d
00000030: b875 2f3d 8cd1 1b3e 6d7a 0abd bc55 093e
00000040: 9f51 ecbc f18a 323e 2634 0abe df9f f33c
00000050: f6b9 713d 2613 f13d 7018 28bc 1169 39bc
00000060: 7186 093e 2d4a adbb 554b 023e 6100 c73d
00000070: 1891 ffbd 394d 64bd becc d9bc 9ff7 eabd
00000080: 7894 583e 6a5f 043e 99d7 ac3d 4ef4 9abd
00000090: a9c4 c0bd f0a3 1abd 5bc9 1e3d 6050 f63d
000000a0: 03c0 0b3d bc43 e63d dbe6 a03d 279c 023e
000000b0: 6ca7 383e 0c6b 04be 758e 3ebd e067 c43d
000000c0: 6ce0 293e 3a5c dfbd f1cd e53d bda3 39bd
000000d0: 628f d83d eb39 88bd 5fb4 693d d6cf 91bc
000000e0: 40b3 d93d 5323 f03d 1f7d e1bd d32f 6b3d
000000f0: 56a8 d0bd 92dd 53bd a6b5 acbd 13a4 23be
00000100: f3f5 993c a6ba 913d 358d b6bd b8e3 5ebd
00000110: 0f8c b5bd 9a4b 3ebb 6dc9 aebd a7a0 28bd
00000120: 9052 573d 018b 983d 272d 173e 4a58 c8bd
00000130: 6885 9f3d c262 dbbd 9636 0cbe 7e17 663d
00000140: 0d7d dfbc e631 f23d 1d72 ad3c be86 bdbb
00000150: 72f4 ec3b 99ce a03d af59 debd 9ffe 20be
00000160: 02cd 6f3c aba0 0c3c 6dfe 9ebd 531b 433c
00000170: b6db 873d cdc9 5f3d a6b5 07be 193d cc3a
00000180: 1a0c 2dbd 3372 54bd 2b6e e73d d769 12be
00000190: 9ffa cb3c 052b 47bd 9e9d cfbd 90f2 74bd
000001a0: 46cc 9c3d 01a4 843d 1a31 c03d 60a9 c13d
000001b0: c9af ddbd 1bf4 c43d bf20 43bd 1dcd e93d
000001c0: b87a f1bd b460 ebbd c714 283d bc73 a0bd
000001d0: 1fbd 683d d9b8 63bd f235 4fbd 0e50 acbc
000001e0: 1dd6 703d 5935 61bd 469f 123c ccbb e33b
000001f0: 63b4 023d 6330 c3bd a1d5 07be 4ae3 78ba
00000200: df5b 81bd 664e 41bd d43a 173d a7fc c6bd
00000210: 3761 13bc 93e5 e2bc 491e 9ebd 3945 21bb
00000220: d398 15be 8259 763c 75aa cc3c 80dd ee3d
00000230: d35b 393d b50f d03d d734 e93d 9550 d63c
00000240: 2973 863d 1041 2ebd c14f c1bd 04ba 903d
00000250: 804f 023e db5f 693c d960 e33c 847a 603e
00000260: 2121 f0bd 0e2c d5bd 9c61 963d 5b5c cebc
00000270: 800b 76bc 7713 cb3d b446 b63c b39b 5fbd
00000280: dbea 233e 8bef 463d 31ae aa3b 2b1d 0bbd
00000290: e01c 8c3d de0d fe3d a5a4 d53c 61e8 f83d
000002a0: d02d 543b 7b55 393d 2ffd 6dbd 7aee 233d
000002b0: aa72 043e dc6d 923d b636 233e 7a98 073c
000002c0: 8efe 023e 7b67 df3d 7c2c 01be 3a76 8abd
000002d0: 5ce9 b33d 0078 903d e150 2e3e 4797 0e3e
000002e0: d086 fc3d 85e7 9bbd 9a34 f0bd 2015 a7bd
000002f0: d232 f03d f0ac a3bc dab0 adbd a246 163e
00000300: 9cfe b1bc 61ae 293e 2ba4 ea3d ad21 893d
00000310: 022d 123b 6531 dabd f713 513d d2c7 013d
0.15417117 0.06470798 0.0933724 0.15332618 -0.04681851 -0.09331819 0.03290372 -0.061271083
-0.010088415 0.098471545 0.010103989 0.069437146 0.042836875 0.15216655 -0.03380816 0.13411611
-0.028847514 0.17435814 -0.13496456 0.029739318 0.059015237 0.117712304 -0.010259733 -0.011316554
0.13430192 -0.0052883835 0.1272405 0.09716869 -0.12478846 -0.055737708 -0.026586886 -0.11473011
0.21150386 0.12927023 0.084395595 -0.07566129 -0.0941251 -0.037754 0.038766246 0.12027049
0.034118664 0.11243388 0.07856532 0.1275488 0.18032616 -0.1293146 -0.046522576 0.09590125
0.16589516 -0.10906263 0.11220921 -0.04532217 0.10574223 -0.06651672 0.05705678 -0.0177993
0.10629892 0.117254876 -0.11010193 0.057418656 -0.101883575 -0.051724978 -0.08433084 -0.15980558
0.018794036 0.071156785 -0.08913652 -0.05441639 -0.08864605 -0.0029036761 -0.08534513 -0.041168835
0.052568972 0.07448388 0.14763318 -0.09782465 0.07789117 -0.10712196 -0.13692698 0.056174748
-0.027281309 0.118259236 0.021172578 -0.005783885 0.0072312886 0.078519054 -0.108569495 -0.1572213
0.01463628 0.008583228 -0.077633716 0.01190837 0.066337034 0.05463581 -0.13252887 0.0015582173
-0.04224787 -0.05186672 0.1130031 -0.14298187 0.024899779 -0.04862501 -0.10137485 -0.059801638
0.076561496 0.06476594 0.093843654 0.09456134 -0.10824544 0.09616872 -0.04763865 0.114160754
-0.11790985 -0.11493054 0.04103544 -0.078345746 0.056820985 -0.055596206 -0.050588556 -0.021034267
0.058797944 -0.054982517 0.008949107 0.0069498774 0.03191031 -0.095307134 -0.13265087 -0.0009494318
-0.06316351 -0.047193907 0.036921337 -0.09716158 -0.008995346 -0.02769736 -0.0772062 -0.002460791
-0.14609079 0.015035989 0.024983624 0.116633415 0.045253586 0.10159246 0.113870315 0.026161471
0.06564934 -0.042542517 -0.0943904 0.0706673 0.1272564 0.014244045 0.027756141 0.21921736
-0.11725069 -0.104087934 0.07342836 -0.025190523 -0.01501739 0.09915822 0.02225051 -0.054591846
0.16007559 0.04856829 0.0052087535 -0.033963364 0.06841445 0.12404989 0.026079485 0.12153698
0.003237594 0.045247536 -0.058102783 0.04002235 0.12934366 0.0714986 0.1593884 0.008276099
0.12792417 0.10908409 -0.12614626 -0.06760831 0.08784744 0.07054138 0.1702304 0.13924895
0.12330401 -0.07612518 -0.11728783 -0.08158326 0.11728443 -0.019979924 -0.084809974 0.14675382
-0.021727853 0.16570427 0.11457094 0.06695876 0.0022304659 -0.106539525 0.05104443 0.031684704

fc.weight f4 [4, 50]
00000000: 7930 0e3e 16bf ae3d bae3 52bd d182 22bd
00000010: 59ee 813d 62cc 163e 916b 05be 7fa4 603d
00000020: 8149 043e 0aab 2f3e ee02 0bbc b4e6 eb3d
00000030: e8ee fe3d b2af 75bd 0ba8 b2bb 6083 003d
00000040: c417 bdbc 8c9f 2eba dda3 acbd ad8b 63bc
00000050: 0a19 493d a2d1 813d aee4 8b3d 74ef 9e3d
00000060: 82ee ce3d 1b21 033e 05f1 ebbd 6128 15be
00000070: 2010 833d c5fc 823d 3b0b 89bd 08b5 17be
00000080: f817 813d ee09 2c3e a20d 0fbe 19d8 dcbd
00000090: f43f 25be 6522 f33d 6509 a0bd b5e6 143e
000000a0: cd10 d33d 5c18 f5bc 861d 6b3d 1d63 103e
000000b0: a697 84bc be27 f2bd 05ba 563d 2800 bdbd
000000c0: 68ac c3bd d8dd 0cbe 0424 5abd ee88 203e
000000d0: 6b81 0ebd 672e f73d ec13 2f3d c500 0f3e
000000e0: bde7 b1bc 942e 083e e493 c63d 2a83 cc3d
000000f0: 9c18 473d e877 783c 7bd5 473e 9b3e f53c
00000100: 6336 fe3c 7339 033e e2c8 cbbd 6237 cc3d
00000110: e9a0 d53c ded9 8cbd d0a1 0a3d 5843 9f3c
00000120: a7e2 a63d c2d6 8cbc e3b6 023e 2f88 c53d
00000130: de73 aebd 5265 3b3d 0d71 b3bd 361f 4fbb
00000140: b5bd 0c3d c15c ca3d e5a0 603d 7142 483e
00000150: 1f3c 02be 187b 20be ffec bfbd 24bb 033e
00000160: 6666 0cbe e9a5 933c 4187 043e 0e60 0d3e
00000170: 5581 833d 3be7 213e 339b 8ebd cc55 173e
00000180: 4b06 e23c 888b 0bbe f4d1 a1b9 fecf 7fbd
00000190: bf81 b53c 8f05 c23d 2a71 e6bd 5bf4 163e
000001a0: a2bb 87bd 7cd4 33bc 1c26 93bd 4c40 e7bd
000001b0: 743d 9dbd 191f bd3b c38a d03d 55de 653d
000001c0: 9be7 213e bec8 fa3d 764f cf3d 8393 0a3e
000001d0: d881 04be 10cc 153e 2ea6 dfbd f536 fbbc
000001e0: c918 213d da9c f93d 2779 253d 40a9 bd3c
000001f0: 64e2 883d a6e8 76bd 69b4 30bd 49ba cabd
00000200: fc1d c9bc 3281 ef3d 871e 26be c4a1 3f3d
00000210: 40a3 403e 3efe 233e 3ffd 943d 8f66 dc3b
00000220: 025d e1bc d2eb 8b3d 4e46 bcbd 25ef aabc
00000230: 7900 8e3c 8643 1f3e 7b27 8fbd dbce 973d
00000240: f9cd 35be 374a 1fbd 3717 14be 2291 8b3b
00000250: f12a edbc a30b d4bd aa73 1f3e ddbb 1a3e
00000260: 0817 4b3d 97b7 19bc 1b36 7d3d 954c ed3d
00000270: 9c30 9dbd c76f 013c b826 c23d 958f 6abd
00000280: 8634 d73c 2f16 033c 2a80 c3bb 5192 d63d
00000290: fb34 a33d 8cc8 1d3e acae 8abd 80be 0b3e
000002a0: 28db 92bd 6953 e8bd 54b7 df3d f6b3 ed3c
000002b0: 6ef4 e63d 0fd9 86b9 f461 b5bd 24b5 ab3d
000002c0: 590b 23be ab49 39bd 2f67 72bd d100 0c3e
000002d0: 75ff b6bd 1e8a 7e3c 50c6 f13d 2bcb 493e
000002e0: f03a b53d 48f2 99bc 726c 8f3d e5e2 9cbd
000002f0: ee0f 82bd c62d 96bd 1013 533d 5e42 213e
00000300: 1abb a6bd 93d5 ea3d 100f 31be 6a8c 39bc
00000310: 21d6 cdbd 5af6 f7bd edae 31be 7681 debd
0.13885678 0.085325405 -0.05148671 -0.039675537 0.06344289 0.14726403 -0.13029315 0.054844376
0.12918665 0.1715509 -0.008484585 0.115186125 0.124479115 -0.05998201 -0.005452161 0.03137529
-0.023082621 -0.00066613476 -0.08429692 -0.013888282 0.049096145 0.063388124 0.068307266 0.07760516
0.101040855 0.12805597 -0.1152058 -0.14566185 0.0639956 0.06395868 -0.06691595 -0.14815152
0.063034 0.16800663 -0.13970044 -0.10783405 -0.16137677 0.118717946 -0.07814292 0.14541133
0.10305939 -0.029918842 0.057401203 0.14100309 -0.016185593 -0.118239865 0.052423496 -0.092285454
-0.09554368 -0.13756502 -0.053257003 0.15677235 -0.03479139 0.120693974 0.04274361 0.13965137
-0.021716947 0.13299018 0.09696177 0.09985955 0.048607454 0.015165307 0.1951503 0.02993708
0.031031793 0.12814884 -0.09950425 0.09971501 0.026077705 -0.06877492 0.033845723 0.019441292
0.08148699 -0.017192248 0.12765078 0.096451156 -0.08518194 0.045750923 -0.08761797 -0.0031604297
0.034360606 0.09880973 0.05484094 0.19556595 -0.12718247 -0.15671957 -0.09371375 0.12864357
-0.13710937 0.018023448 0.1294222 0.13806173 0.064211525 0.15810864 -0.06963196 0.14778823
0.027590891 -0.13627446 -0.0003086474 -0.062454216 0.022156594 0.094737165 -0.11252053 0.14741652
-0.06627585 -0.010975953 -0.07185003 -0.112915605 -0.07677737 0.0057715294 0.10182717 0.056120235
0.15811007 0.1224532 0.10122578 0.13532834 -0.12940156 0.14628625 -0.10920368 -0.030665854
0.039330278 0.1218812 0.040398743 0.023151994 0.066838056 -0.060280465 -0.043140803 -0.09898812
-0.02455043 0.11694564 -0.16222583 0.04678513 0.18812275 0.16014954 0.07274865 0.006726093
-0.02751017 0.068320885 -0.09193097 -0.020865986 0.01733421 0.15553102 -0.06989952 0.074125014
-0.17754354 -0.038889136 -0.14461981 0.0042592445 -0.02895114 -0.10353782 0.15571466 0.15110727
0.04958251 -0.00938215 0.061819177 0.115868725 -0.07675287 0.007900185 0.09480041 -0.057265837
0.026270162 0.008000894 -0.005966206 0.104771264 0.079690896 0.15408534 -0.06771597 0.13646889
-0.07170707 -0.11344034 0.10923639 0.029016476 0.1127709 -0.00025720193 -0.08856574 0.08384159
-0.15922298 -0.04523627 -0.059180435 0.13672186 -0.08935443 0.015535859 0.11805403 0.19706409
0.08849132 -0.018792287 0.07003106 -0.07660464 -0.063506946 -0.07332949 0.05153185 0.15747973
-0.081411555 0.11466517 -0.17290902 -0.011324981 -0.100506075 -0.12107535 -0.17351885 -0.108645365

fc.bias f4 [4]
00000000: f2ae 8ebd da8c ab3c 3a7b d63d 8232 d43d
-0.06966962 0.020941187 0.10472722 0.10361196
